software/best_bnn_model.pth (torch, 821783 bytes, 8 tensors)

fc1.weight f4 [256, 784]
0	0x3d097a78	0.03356406
1	0xbcc4ca21	-0.024022164
2	0xbc189c25	-0.0093145715
3	0x3c21ecea	0.009883145
4	0x3c3e932a	0.011631766
5	0xbc4dedd7	-0.0125689125
6	0xbd000c6c	-0.031261846
7	0x3c0c11aa	0.008549133
8	0xbbe1ef2e	-0.0068949675
9	0x3cb59ea7	0.022170378
10	0xba191c93	-0.00058407447
11	0xbcdea188	-0.027176633
12	0xbc897943	-0.016781455
13	0x3cc633aa	0.024194557
14	0x3a3c4493	0.0007181849
15	0x3d0cd190	0.034379542
16	0xbd05fea4	-0.032713547
17	0xbc77eca1	-0.0151321
18	0xbc8ee497	-0.017442985
19	0xbc9c5a1c	-0.019085936
20	0x3d0271ce	0.031846814
21	0xbd02410c	-0.031800315
22	0xbca3db1c	-0.02000194
23	0xbd0b69e0	-0.034036517
24	0xbc9136fa	-0.01772641
25	0xbca82b8a	-0.020528574
26	0xbab0f1dc	-0.0013499814
27	0xbcc2ce11	-0.0237799
28	0x3d024af4	0.031809762
29	0x3d00441d	0.031314958
30	0x39de0a4a	0.00042350806
31	0xbcfae013	-0.030624425
32	0x3c77a038	0.015113883
33	0xbc5b150e	-0.013371719
34	0xbc3bfd4e	-0.011473967
35	0xbc596d73	-0.013270724
36	0x3c36c7ce	0.011156036
37	0x3c0b421c	0.008499648
38	0xbc97077e	-0.01843619
39	0x3c5f6ac5	0.013636296
40	0xbc537e21	-0.012908489
41	0xbc8ba0bc	-0.017044418
42	0x3cedcd4a	0.029028554
43	0x3ca13bf0	0.0196819
44	0xbc833dde	-0.016020712
45	0xbc2a4437	-0.01039224
46	0xbcc3f57a	-0.023920763
47	0x3b7ff6b8	0.0039056968
48	0x3c531081	0.012882353
49	0xbc1c5ff7	-0.009544364
50	0x3b902e37	0.0044000405
51	0x3cd47cf3	0.025938487
52	0xbc24dc8e	-0.01006235
53	0x3b2c5dca	0.002630102
54	0x3cb3ef3a	0.021964658
55	0x3d09a7a7	0.03360715
56	0xbc9893ac	-0.018625103
57	0x3ca7d010	0.020484954
58	0x3cb67605	0.022273073
59	0x3c3a8337	0.011383823
60	0x3cba279a	0.022723962
61	0x3ca098aa	0.019604046
62	0xbb8170d3	-0.0039502173
63	0xb7caedb7	-2.4190971e-05
64	0x3c897563	0.016779607
65	0xbd00deb3	-0.031462383
66	0xbba3e540	-0.005001694
67	0xbbeee681	-0.007290662
68	0xbb5c2d81	-0.0033596458
69	0xbc19171c	-0.009343889
70	0xbbfea641	-0.007771284
71	0xbd071670	-0.032980382
72	0xbc3f8ddc	-0.011691537
73	0xbc6a93c5	-0.014317458
74	0x3d0cb16c	0.03434889
75	0xbcfeda2e	-0.031109896
76	0x3cbcbdda	0.023039747
77	0x3be1a1d3	0.006885746
78	0xbc5973ce	-0.013272239
79	0x3d0f1354	0.034930542
80	0x3ca2a00c	0.019851707
81	0x3d0f7970	0.03502792
82	0xbbe9bf2e	-0.007133386
83	0xbb58616e	-0.0033017057
84	0xbce3357e	-0.027735468
85	0xbc2d498a	-0.010576615
86	0xb9d0fadc	-0.00039859756
87	0xbc9e6367	-0.019334508
88	0xbc6acd6a	-0.014331201
89	0xbb6060b8	-0.0034237336
90	0x3cdd40b3	0.02700839
91	0x3caff2be	0.021478053
92	0x3b70b3a5	0.003672817
93	0x3cf2fd8e	0.02966192
94	0x3c84ce07	0.016211523
95	0x3cd8be6a	0.026457984
96	0x3c2d646e	0.010583026
97	0x3d02eaeb	0.031962316
98	0x3c34a69c	0.011026051
99	0x3b14ed00	0.002272427
100	0xbcd5f237	-0.026116474
101	0x3b844cb7	0.0040374654
102	0xbc2ea173	-0.01065861
103	0x3c23e3b3	0.010003018
104	0x3bb4cec1	0.005517811
105	0x3d06205f	0.032745715
106	0x3cd52195	0.02601699
107	0xbbdf76a5	-0.0068195635
108	0x3cd0430a	0.025422592
109	0x3ba90b77	0.0051588374
110	0x3a612c4a	0.00085896684
111	0xbd025480	-0.031818867
112	0x3b0e5fb7	0.002172453
113	0x3d03dc96	0.03219279
114	0xbcb7cd73	-0.022436833
115	0xbb652a81	-0.0034967961
116	0x3c39adf7	0.01133298
117	0x3c2a9eb7	0.010413817
118	0x3cb0d7e3	0.021587318
119	0x3c9d7573	0.019221043
120	0x3c4f7bd7	0.012663803
121	0x3c81cb4e	0.015844014
122	0xbcf765bc	-0.030199878
123	0x3bebb8e5	0.007193672
124	0x3c006140	0.007835686
125	0x3c9811e0	0.018563211
126	0xbcaf8da5	-0.021429846
127	0x3d000a06	0.03125956
128	0xbc0bdabc	-0.008536037
129	0x3ccf9d81	0.025343658
130	0x3cd0d757	0.025493307
131	0xb9977db7	-0.0002889463
132	0xbcfaeea3	-0.030631369
133	0x3bfd40a5	0.0077286535
134	0xbc6d2ba1	-0.014475734
135	0xbb416eca	-0.0029515498
136	0xbc268d4a	-0.010165522
137	0xbd0290d7	-0.03187641
138	0xb9369a4a	-0.0001741435
139	0xbc12cae5	-0.008959507
140	0xbd0ebb70	-0.034846723
141	0x3c80cc5c	0.015722446
142	0x3b9d8125	0.004806655
143	0x3cdee873	0.02721045
144	0xbc9d7120	-0.019218981
145	0xbd05168f	-0.032492217
146	0xb9732493	-0.00023187911
147	0x3ca4caf5	0.020116309
148	0xbcd565f1	-0.026049586
149	0x3c72dd93	0.014823335
150	0xbc03c360	-0.0080421865
151	0xbd0e80ba	-0.034790732
152	0x3d01c5a0	0.03168261
153	0xbc831a17	-0.016003652
154	0x3b508601	0.0031818154
155	0x3cebbc5e	0.028776344
156	0x3cd04675	0.025424222
157	0xbc696933	-0.014246273
158	0xba70da93	-0.00091878435
159	0x3987564a	0.00025813497
160	0xbcb51007	-0.022102369
161	0xbca7e1fc	-0.0204935
162	0x3b816665	0.003948974
163	0x3a56e4dc	0.0008197555
164	0xbcd99a31	-0.026562782
165	0xbc9cf7ec	-0.019161187
166	0xbcd20c4e	-0.025640633
167	0xbc26e1c0	-0.010185659
168	0x3b59d225	0.0033236828
169	0x3c4b08f7	0.012392274
170	0xbbc49241	-0.00599888
171	0xbc80870c	-0.015689395
172	0xbc5b26a1	-0.013375909
173	0x3d0c7064	0.03428687
174	0xbbfa9d25	-0.0076481276
175	0x3cfa81be	0.030579444
176	0xbd03b12f	-0.032151397
177	0x3d0d0c70	0.03443569
178	0x3cd36abe	0.025807735
179	0xbc132913	-0.008981961
180	0xbcf8b81c	-0.030361228
181	0xbac1f4dc	-0.0014797705
182	0xbb766bee	-0.0037600952
183	0x3c8f0757	0.017459555
184	0x3b7f9025	0.003899583
185	0x3c2c78ca	0.010526845
186	0xbcbe33a5	-0.023217985
187	0xbcdca7cc	-0.02693548
188	0x3c8e9c07	0.017408384
189	0x3be6d1d3	0.007044056
190	0xbd06d59f	-0.03291857
191	0x3c82dc40	0.015974164
192	0xbc8a55c3	-0.016886597
193	0x3ca51523	0.02015168
194	0xbc721ef8	-0.014777891
195	0x3c9cf6ba	0.019160617
196	0x3cf92d8c	0.030417226
197	0xbce23ee3	-0.027617877
198	0xbd0c601f	-0.034271356
199	0xbd120724	-0.03565134
200	0xbca12c0a	-0.01967432
201	0x3ceec9fc	0.029149048
202	0xbc88cbaa	-0.016698677
203	0xbc986fe7	-0.018608047
204	0x3cc23d97	0.023711009
205	0x3970bedc	0.00022959284
206	0xbd006f2b	-0.031356018
207	0xbad4e14a	-0.0016241458
208	0xbcf5ea3a	-0.030018914
209	0x3cdce898	0.026966378
210	0xbc670fbc	-0.014102872
211	0x3d0d374d	0.034476567
212	0xbc89f5a7	-0.016840769
213	0x3d089d82	0.033353336
214	0xbbc488ae	-0.005997739
215	0xbc1ce645	-0.009576385
216	0x3cf03658	0.029322788
217	0x3c76b133	0.015056896
218	0x3c4d1c4e	0.012518955
219	0x3b95e00a	0.0045738267
220	0xbcd79921	-0.026318135
221	0x3d0989b0	0.033578575
222	0xbc9eaa53	-0.019368326
223	0xbd08f4a4	-0.033436432
224	0x3ca86d0e	0.020559814
225	0xbc7f0bee	-0.015566809
226	0x3c9e98f0	0.019360036
227	0x3c940b5c	0.018071823
228	0xbca9c48e	-0.020723607
229	0xbc1f8b73	-0.009737837
230	0x3cba82b1	0.022767397
231	0xbc23aeca	-0.009990403
232	0x3d0d6243	0.034517538
233	0xbc811c45	-0.01576055
234	0xbbc68a25	-0.0060589486
235	0x3ca63e6c	0.020293437
236	0xbccb0841	-0.02478421
237	0x3bd03a65	0.0063546174
238	0x3d0d9c25	0.03457274
239	0xbd0f589a	-0.034996606
240	0xbcc07481	-0.023493053
241	0xbc5a977c	-0.013341781
242	0x3ab1114a	0.0013509181
243	0x3c40095c	0.011720981
244	0xbce92451	-0.0284597
245	0x3b9ffb13	0.0048822253
246	0x3c04d165	0.008106564
247	0x3ceca4dc	0.028887205
248	0xbcd2c8e1	-0.025730552
249	0x3c3daf4a	0.011577437
250	0xbc72001c	-0.014770534
251	0xbccbe855	-0.024891058
252	0x3cff4e81	0.031165363
253	0x3d034dec	0.032056734
254	0x3c012d4e	0.007884337
255	0xbce6a70a	-0.028155822

fc1.bias f4 [256]
0	0x3c845663	0.016154474
1	0xba4d9b6e	-0.000784329
2	0x3d093c83	0.033504974
3	0x3cb00e5e	0.021491226
4	0xbc5a7093	-0.013332504
5	0x3d0884b0	0.033329666
6	0x3c4b125c	0.012394514
7	0xbc970a10	-0.018437415
8	0xbce98b81	-0.028508903
9	0xbc493377	-0.012280337
10	0xbad5c5b7	-0.0016309534
11	0xbd0342e4	-0.032046214
12	0x3b7df74a	0.0038752132
13	0xbc1b404a	-0.009475777
14	0x3cdadfea	0.026718099
15	0x3c8c0cb3	0.0170959
16	0x3c703fb8	0.014663629
17	0xbd090e0f	-0.033460673
18	0x3bbc5353	0.0057472377
19	0xbc0093ae	-0.00784771
20	0x3d0fb96f	0.035088953
21	0xbcdc79f1	-0.026913615
22	0xbc927d4c	-0.017882012
23	0xbcdb1813	-0.026744878
24	0x3cf1fb55	0.02953879
25	0xbd0c96be	-0.034323446
26	0x3c64e081	0.0139695415
27	0xbcea43d3	-0.028596794
28	0x3d03f5d8	0.032216877
29	0xbd094650	-0.03351432
30	0xbc8cec05	-0.017202387
31	0x3cef6f85	0.029227981
32	0x3caf0795	0.02136592
33	0xbd08ec75	-0.033428628
34	0x3c6674ce	0.014065934
35	0x3cb2065e	0.021731552
36	0x3c6d158a	0.014470467
37	0x3cee8085	0.029114017
38	0xbc89fba0	-0.016843617
39	0xbb3531dc	-0.0027648127
40	0x3c6ace0e	0.014331354
41	0x3909cb6e	0.00013141122
42	0xbc9948f7	-0.01871155
43	0x3d003e40	0.031309366
44	0xbb910040	-0.0044250786
45	0xbc976450	-0.01848045
46	0x3b912f40	0.0044306815
47	0x3c5f0dae	0.013614101
48	0x3d10f07c	0.035385594
49	0xbbd46ba5	-0.006482559
50	0x3cd6f815	0.026241342
51	0x3cedb213	0.029015576
52	0x3c0931e5	0.008373712
53	0x3c4c5da1	0.012473495
54	0xbcc82c8c	-0.024435304
55	0x3adeff4a	0.0017013338
56	0xbcc376a3	-0.023860281
57	0x3bc81241	0.0061056917
58	0xbc54fbb7	-0.012999467
59	0xbc27b0fc	-0.010235067
60	0xbcd51b5a	-0.026014019
61	0xbc106640	-0.008813441
62	0x3d0283b6	0.03186389
63	0x3cf1af2e	0.029502477
64	0x3cb521aa	0.022110779
65	0xbcb5e5fe	-0.022204395
66	0xbc445ea1	-0.011985452
67	0x3cb3a91e	0.021931227
68	0xbcdedf43	-0.027206069
69	0xbc8d2790	-0.017230779
70	0xbd0ebe58	-0.034849495
71	0x3cd90ac1	0.026494386
72	0x3c7376ce	0.014859868
73	0xbcd3b781	-0.025844337
74	0xbd021fae	-0.031768493
75	0xbb932c2e	-0.0044913506
76	0x3c823085	0.015892277
77	0x3c6bd145	0.014393155
78	0xbccdf81c	-0.025142722
79	0xbc2e736a	-0.010647634
80	0x3cb8c6ac	0.022555672
81	0x3c074b80	0.008257747
82	0x3cbc36dc	0.022975378
83	0xbc51b465	-0.012799357
84	0xbbad505c	-0.0052891206
85	0x3cf77965	0.030209253
86	0x3b4e6713	0.0031494542
87	0xbcef4f7e	-0.02921271
88	0x3b1ec500	0.0024226308
89	0x3c9ed99a	0.01939087
90	0x3c998ede	0.018744882
91	0xbbf4574a	-0.0074566947
92	0xbabf474a	-0.0014593389
93	0x3d0aab3d	0.03385471
94	0x3cec0618	0.0288115
95	0xba82f1dc	-0.0009990293
96	0xb927fedc	-0.00016021304
97	0xbcfa581a	-0.030559588
98	0x3c495dca	0.012290427
99	0x3ce6b191	0.028160842
100	0x3be1fe38	0.0068967603
101	0xbcfb337a	-0.030664194
102	0x3c26c2d7	0.010178289
103	0x3cda56c3	0.0266527
104	0xbc1e53c5	-0.009663527
105	0x3cd678e3	0.02618069
106	0xbca5671a	-0.020190764
107	0x3cb68091	0.022278102
108	0xbc42f24e	-0.01189859
109	0x3c8bf36c	0.017083846
110	0x3c827f77	0.01592992
111	0xbb21e5dc	-0.0024703657
112	0xbc907573	-0.01763413
113	0x3c386ee5	0.011256908
114	0x3c3da477	0.011574856
115	0xbc46ff6a	-0.012145856
116	0x3c2305a5	0.009950076
117	0x3cc21315	0.02369074
118	0xbcc9557e	-0.024576899
119	0x3c45ed4a	0.0120805
120	0xbc046ca5	-0.0080825435
121	0xbc4d800e	-0.012542738
122	0x3ba594ca	0.0050531374
123	0xbca60d35	-0.02026997
124	0x3cf638ac	0.03005632
125	0xbca0789e	-0.019588765
126	0x3cbc62fc	0.022996418
127	0x3cabc245	0.020966658
128	0xbbe07465	-0.006849813
129	0x3b86102e	0.0040912842
130	0x3ce1203a	0.027481187
131	0x3cdb7711	0.026790174
132	0x3d02e083	0.031952392
133	0x3c224b40	0.009905636
134	0xbc1a09b7	-0.00940173
135	0x3b67d34a	0.003537374
136	0xbc614b9c	-0.013750937
137	0xbbfeb353	-0.007772842
138	0xbc977ad5	-0.018491188
139	0x3cb3ea31	0.021962257
140	0xbbd51101	-0.006502271
141	0xbb100f93	-0.002198194
142	0x3d11f3a7	0.035632756
143	0xbcf62bfc	-0.03005027
144	0xbc88b245	-0.016686568
145	0x3cd0e81a	0.0255013
146	0xbc81f330	-0.015863031
147	0xbba8e21c	-0.0051539075
148	0xbc9c66e0	-0.019092023
149	0x3aad17b7	0.001320592
150	0xbcfc570a	-0.030803222
151	0x3d05c7bf	0.032661196
152	0xbcd8d0ce	-0.026466753
153	0xbcdd4d31	-0.027014347
154	0x3ceb001e	0.02868658
155	0x3c9491fa	0.018136013
156	0xba026fb7	-0.0004975753
157	0xbc1d107c	-0.00958645
158	0xbcdff075	-0.027336339
159	0x3ceb7b5c	0.028745346
160	0x3c47b337	0.012188724
161	0x3cfe080e	0.0310097
162	0xbcd1edbc	-0.025626056
163	0x3d0f826a	0.035036482
164	0xbc8323a5	-0.016008208
165	0xbd07f254	-0.033190086
166	0x3ca7b620	0.020472586
167	0x3cbe59ea	0.023236234
168	0x3c233dd3	0.0099634705
169	0x3ba6284a	0.005070721
170	0x3c9760ac	0.018478714
171	0x3d05b0aa	0.032639183
172	0x3b1c205c	0.0023822999
173	0x3c7d83ea	0.015473345
174	0x3ca09fa5	0.019607374
175	0x3c86ef03	0.016471392
176	0xbc3a412a	-0.011368075
177	0xbc61d84a	-0.0137844775
178	0x3c99a007	0.018753065
179	0xbc0cd51c	-0.008595731
180	0x3cedb04c	0.029014729
181	0xbc169a5c	-0.009192076
182	0xbbb0c29c	-0.005394293
183	0x3ba04cb7	0.0048919576
184	0xbd0c827a	-0.03430412
185	0x3cb764fc	0.02238702
186	0x3d11949f	0.035542127
187	0x3c82cbd5	0.015966335
188	0xbc29ac13	-0.010355967
189	0x3cdbb738	0.026820764
190	0xbab5fe01	-0.0013884903
191	0xbcd016d3	-0.025401508
192	0xbc1555a0	-0.009114653
193	0xbd0ed022	-0.03486646
194	0xbc9334b5	-0.017969469
195	0xbd054757	-0.032538738
196	0x3cc569e1	0.024098339
197	0x3cc39a7a	0.023877371
198	0x3c9f87fe	0.019474026
199	0xbbf3da2e	-0.0074417805
200	0xbcefd911	-0.02927831
201	0x3bb0038a	0.0053715156
202	0xbcf97895	-0.030453006
203	0xbba40880	-0.005005896
204	0x3c47fcdc	0.0122062825
205	0x3cbbb45c	0.02291315
206	0xbc57be21	-0.013167889
207	0x3cd545c3	0.026034242
208	0xbb65285c	-0.0034966683
209	0x3d0f3c25	0.034969468
210	0x3c7ab66e	0.015302284
211	0x3c97bcde	0.018522676
212	0x3ca1c17a	0.019745577
213	0x3bb5ed4a	0.0055519687
214	0xbba021b7	-0.0048868316
215	0xbca18fae	-0.019721832
216	0xbbb91541	-0.0056482856
217	0x3cf71afc	0.030164234
218	0x3d04975e	0.032370917
219	0xbc16eba5	-0.0092114555
220	0xbcbe895c	-0.023258857
221	0x3bcd8ddc	0.0062730145
222	0xbcc7eba1	-0.024404349
223	0xbc9f4260	-0.01944083
224	0x3be9f678	0.007139977
225	0xbad92ab7	-0.0016568516
226	0x3ca3e24e	0.020005371
227	0xbb2c6f81	-0.0026311579
228	0xbd0fe1b3	-0.035127353
229	0x3c1d1d2e	0.0095894765
230	0xbc422133	-0.011848736
231	0x3d09f28d	0.03367858
232	0x3b905377	0.004404481
233	0xbc8339ea	-0.016018827
234	0x3c013913	0.007887143
235	0x3cc81497	0.02442388
236	0x3ce320cc	0.0277256
237	0x3c8ce747	0.017200125
238	0x3c71fdfc	0.014770027
239	0x3ab998dc	0.0014159936
240	0x3c74040a	0.014893541
241	0x3c6aec81	0.0143386135
242	0x3d0686e8	0.0328435
243	0x3c9d6197	0.019211574
244	0x3b59e937	0.003325058
245	0xbc97461c	-0.018466048
246	0xbcf34a53	-0.029698526
247	0x3cbbf871	0.022945615
248	0xbc8274e3	-0.015924877
249	0x3c45d1b7	0.012073926
250	0x3c716b6e	0.014735086
251	0xbca055b0	-0.019572109
252	0xbc1f9440	-0.009739935
253	0x3c3707ce	0.011171294
254	0x3cd20a53	0.025639689
255	0xbcadf447	-0.021234645

bn1.weight f4 [256]
0	0x3f800000	1.0
1	0x3f800000	1.0
2	0x3f800000	1.0
3	0x3f800000	1.0
4	0x3f800000	1.0
5	0x3f800000	1.0
6	0x3f800000	1.0
7	0x3f800000	1.0
8	0x3f800000	1.0
9	0x3f800000	1.0
10	0x3f800000	1.0
11	0x3f800000	1.0
12	0x3f800000	1.0
13	0x3f800000	1.0
14	0x3f800000	1.0
15	0x3f800000	1.0
16	0x3f800000	1.0
17	0x3f800000	1.0
18	0x3f800000	1.0
19	0x3f800000	1.0
20	0x3f800000	1.0
21	0x3f800000	1.0
22	0x3f800000	1.0
23	0x3f800000	1.0
24	0x3f800000	1.0
25	0x3f800000	1.0
26	0x3f800000	1.0
27	0x3f800000	1.0
28	0x3f800000	1.0
29	0x3f800000	1.0
30	0x3f800000	1.0
31	0x3f800000	1.0
32	0x3f800000	1.0
33	0x3f800000	1.0
34	0x3f800000	1.0
35	0x3f800000	1.0
36	0x3f800000	1.0
37	0x3f800000	1.0
38	0x3f800000	1.0
39	0x3f800000	1.0
40	0x3f800000	1.0
41	0x3f800000	1.0
42	0x3f800000	1.0
43	0x3f800000	1.0
44	0x3f800000	1.0
45	0x3f800000	1.0
46	0x3f800000	1.0
47	0x3f800000	1.0
48	0x3f800000	1.0
49	0x3f800000	1.0
50	0x3f800000	1.0
51	0x3f800000	1.0
52	0x3f800000	1.0
53	0x3f800000	1.0
54	0x3f800000	1.0
55	0x3f800000	1.0
56	0x3f800000	1.0
57	0x3f800000	1.0
58	0x3f800000	1.0
59	0x3f800000	1.0
60	0x3f800000	1.0
61	0x3f800000	1.0
62	0x3f800000	1.0
63	0x3f800000	1.0
64	0x3f800000	1.0
65	0x3f800000	1.0
66	0x3f800000	1.0
67	0x3f800000	1.0
68	0x3f800000	1.0
69	0x3f800000	1.0
70	0x3f800000	1.0
71	0x3f800000	1.0
72	0x3f800000	1.0
73	0x3f800000	1.0
74	0x3f800000	1.0
75	0x3f800000	1.0
76	0x3f800000	1.0
77	0x3f800000	1.0
78	0x3f800000	1.0
79	0x3f800000	1.0
80	0x3f800000	1.0
81	0x3f800000	1.0
82	0x3f800000	1.0
83	0x3f800000	1.0
84	0x3f800000	1.0
85	0x3f800000	1.0
86	0x3f800000	1.0
87	0x3f800000	1.0
88	0x3f800000	1.0
89	0x3f800000	1.0
90	0x3f800000	1.0
91	0x3f800000	1.0
92	0x3f800000	1.0
93	0x3f800000	1.0
94	0x3f800000	1.0
95	0x3f800000	1.0
96	0x3f800000	1.0
97	0x3f800000	1.0
98	0x3f800000	1.0
99	0x3f800000	1.0
100	0x3f800000	1.0
101	0x3f800000	1.0
102	0x3f800000	1.0
103	0x3f800000	1.0
104	0x3f800000	1.0
105	0x3f800000	1.0
106	0x3f800000	1.0
107	0x3f800000	1.0
108	0x3f800000	1.0
109	0x3f800000	1.0
110	0x3f800000	1.0
111	0x3f800000	1.0
112	0x3f800000	1.0
113	0x3f800000	1.0
114	0x3f800000	1.0
115	0x3f800000	1.0
116	0x3f800000	1.0
117	0x3f800000	1.0
118	0x3f800000	1.0
119	0x3f800000	1.0
120	0x3f800000	1.0
121	0x3f800000	1.0
122	0x3f800000	1.0
123	0x3f800000	1.0
124	0x3f800000	1.0
125	0x3f800000	1.0
126	0x3f800000	1.0
127	0x3f800000	1.0
128	0x3f800000	1.0
129	0x3f800000	1.0
130	0x3f800000	1.0
131	0x3f800000	1.0
132	0x3f800000	1.0
133	0x3f800000	1.0
134	0x3f800000	1.0
135	0x3f800000	1.0
136	0x3f800000	1.0
137	0x3f800000	1.0
138	0x3f800000	1.0
139	0x3f800000	1.0
140	0x3f800000	1.0
141	0x3f800000	1.0
142	0x3f800000	1.0
143	0x3f800000	1.0
144	0x3f800000	1.0
145	0x3f800000	1.0
146	0x3f800000	1.0
147	0x3f800000	1.0
148	0x3f800000	1.0
149	0x3f800000	1.0
150	0x3f800000	1.0
151	0x3f800000	1.0
152	0x3f800000	1.0
153	0x3f800000	1.0
154	0x3f800000	1.0
155	0x3f800000	1.0
156	0x3f800000	1.0
157	0x3f800000	1.0
158	0x3f800000	1.0
159	0x3f800000	1.0
160	0x3f800000	1.0
161	0x3f800000	1.0
162	0x3f800000	1.0
163	0x3f800000	1.0
164	0x3f800000	1.0
165	0x3f800000	1.0
166	0x3f800000	1.0
167	0x3f800000	1.0
168	0x3f800000	1.0
169	0x3f800000	1.0
170	0x3f800000	1.0
171	0x3f800000	1.0
172	0x3f800000	1.0
173	0x3f800000	1.0
174	0x3f800000	1.0
175	0x3f800000	1.0
176	0x3f800000	1.0
177	0x3f800000	1.0
178	0x3f800000	1.0
179	0x3f800000	1.0
180	0x3f800000	1.0
181	0x3f800000	1.0
182	0x3f800000	1.0
183	0x3f800000	1.0
184	0x3f800000	1.0
185	0x3f800000	1.0
186	0x3f800000	1.0
187	0x3f800000	1.0
188	0x3f800000	1.0
189	0x3f800000	1.0
190	0x3f800000	1.0
191	0x3f800000	1.0
192	0x3f800000	1.0
193	0x3f800000	1.0
194	0x3f800000	1.0
195	0x3f800000	1.0
196	0x3f800000	1.0
197	0x3f800000	1.0
198	0x3f800000	1.0
199	0x3f800000	1.0
200	0x3f800000	1.0
201	0x3f800000	1.0
202	0x3f800000	1.0
203	0x3f800000	1.0
204	0x3f800000	1.0
205	0x3f800000	1.0
206	0x3f800000	1.0
207	0x3f800000	1.0
208	0x3f800000	1.0
209	0x3f800000	1.0
210	0x3f800000	1.0
211	0x3f800000	1.0
212	0x3f800000	1.0
213	0x3f800000	1.0
214	0x3f800000	1.0
215	0x3f800000	1.0
216	0x3f800000	1.0
217	0x3f800000	1.0
218	0x3f800000	1.0
219	0x3f800000	1.0
220	0x3f800000	1.0
221	0x3f800000	1.0
222	0x3f800000	1.0
223	0x3f800000	1.0
224	0x3f800000	1.0
225	0x3f800000	1.0
226	0x3f800000	1.0
227	0x3f800000	1.0
228	0x3f800000	1.0
229	0x3f800000	1.0
230	0x3f800000	1.0
231	0x3f800000	1.0
232	0x3f800000	1.0
233	0x3f800000	1.0
234	0x3f800000	1.0
235	0x3f800000	1.0
236	0x3f800000	1.0
237	0x3f800000	1.0
238	0x3f800000	1.0
239	0x3f800000	1.0
240	0x3f800000	1.0
241	0x3f800000	1.0
242	0x3f800000	1.0
243	0x3f800000	1.0
244	0x3f800000	1.0
245	0x3f800000	1.0
246	0x3f800000	1.0
247	0x3f800000	1.0
248	0x3f800000	1.0
249	0x3f800000	1.0
250	0x3f800000	1.0
251	0x3f800000	1.0
252	0x3f800000	1.0
253	0x3f800000	1.0
254	0x3f800000	1.0
255	0x3f800000	1.0

bn1.bias f4 [256]
0	0x00000000	0.0
1	0x00000000	0.0
2	0x00000000	0.0
3	0x00000000	0.0
4	0x00000000	0.0
5	0x00000000	0.0
6	0x00000000	0.0
7	0x00000000	0.0
8	0x00000000	0.0
9	0x00000000	0.0
10	0x00000000	0.0
11	0x00000000	0.0
12	0x00000000	0.0
13	0x00000000	0.0
14	0x00000000	0.0
15	0x00000000	0.0
16	0x00000000	0.0
17	0x00000000	0.0
18	0x00000000	0.0
19	0x00000000	0.0
20	0x00000000	0.0
21	0x00000000	0.0
22	0x00000000	0.0
23	0x00000000	0.0
24	0x00000000	0.0
25	0x00000000	0.0
26	0x00000000	0.0
27	0x00000000	0.0
28	0x00000000	0.0
29	0x00000000	0.0
30	0x00000000	0.0
31	0x00000000	0.0
32	0x00000000	0.0
33	0x00000000	0.0
34	0x00000000	0.0
35	0x00000000	0.0
36	0x00000000	0.0
37	0x00000000	0.0
38	0x00000000	0.0
39	0x00000000	0.0
40	0x00000000	0.0
41	0x00000000	0.0
42	0x00000000	0.0
43	0x00000000	0.0
44	0x00000000	0.0
45	0x00000000	0.0
46	0x00000000	0.0
47	0x00000000	0.0
48	0x00000000	0.0
49	0x00000000	0.0
50	0x00000000	0.0
51	0x00000000	0.0
52	0x00000000	0.0
53	0x00000000	0.0
54	0x00000000	0.0
55	0x00000000	0.0
56	0x00000000	0.0
57	0x00000000	0.0
58	0x00000000	0.0
59	0x00000000	0.0
60	0x00000000	0.0
61	0x00000000	0.0
62	0x00000000	0.0
63	0x00000000	0.0
64	0x00000000	0.0
65	0x00000000	0.0
66	0x00000000	0.0
67	0x00000000	0.0
68	0x00000000	0.0
69	0x00000000	0.0
70	0x00000000	0.0
71	0x00000000	0.0
72	0x00000000	0.0
73	0x00000000	0.0
74	0x00000000	0.0
75	0x00000000	0.0
76	0x00000000	0.0
77	0x00000000	0.0
78	0x00000000	0.0
79	0x00000000	0.0
80	0x00000000	0.0
81	0x00000000	0.0
82	0x00000000	0.0
83	0x00000000	0.0
84	0x00000000	0.0
85	0x00000000	0.0
86	0x00000000	0.0
87	0x00000000	0.0
88	0x00000000	0.0
89	0x00000000	0.0
90	0x00000000	0.0
91	0x00000000	0.0
92	0x00000000	0.0
93	0x00000000	0.0
94	0x00000000	0.0
95	0x00000000	0.0
96	0x00000000	0.0
97	0x00000000	0.0
98	0x00000000	0.0
99	0x00000000	0.0
100	0x00000000	0.0
101	0x00000000	0.0
102	0x00000000	0.0
103	0x00000000	0.0
104	0x00000000	0.0
105	0x00000000	0.0
106	0x00000000	0.0
107	0x00000000	0.0
108	0x00000000	0.0
109	0x00000000	0.0
110	0x00000000	0.0
111	0x00000000	0.0
112	0x00000000	0.0
113	0x00000000	0.0
114	0x00000000	0.0
115	0x00000000	0.0
116	0x00000000	0.0
117	0x00000000	0.0
118	0x00000000	0.0
119	0x00000000	0.0
120	0x00000000	0.0
121	0x00000000	0.0
122	0x00000000	0.0
123	0x00000000	0.0
124	0x00000000	0.0
125	0x00000000	0.0
126	0x00000000	0.0
127	0x00000000	0.0
128	0x00000000	0.0
129	0x00000000	0.0
130	0x00000000	0.0
131	0x00000000	0.0
132	0x00000000	0.0
133	0x00000000	0.0
134	0x00000000	0.0
135	0x00000000	0.0
136	0x00000000	0.0
137	0x00000000	0.0
138	0x00000000	0.0
139	0x00000000	0.0
140	0x00000000	0.0
141	0x00000000	0.0
142	0x00000000	0.0
143	0x00000000	0.0
144	0x00000000	0.0
145	0x00000000	0.0
146	0x00000000	0.0
147	0x00000000	0.0
148	0x00000000	0.0
149	0x00000000	0.0
150	0x00000000	0.0
151	0x00000000	0.0
152	0x00000000	0.0
153	0x00000000	0.0
154	0x00000000	0.0
155	0x00000000	0.0
156	0x00000000	0.0
157	0x00000000	0.0
158	0x00000000	0.0
159	0x00000000	0.0
160	0x00000000	0.0
161	0x00000000	0.0
162	0x00000000	0.0
163	0x00000000	0.0
164	0x00000000	0.0
165	0x00000000	0.0
166	0x00000000	0.0
167	0x00000000	0.0
168	0x00000000	0.0
169	0x00000000	0.0
170	0x00000000	0.0
171	0x00000000	0.0
172	0x00000000	0.0
173	0x00000000	0.0
174	0x00000000	0.0
175	0x00000000	0.0
176	0x00000000	0.0
177	0x00000000	0.0
178	0x00000000	0.0
179	0x00000000	0.0
180	0x00000000	0.0
181	0x00000000	0.0
182	0x00000000	0.0
183	0x00000000	0.0
184	0x00000000	0.0
185	0x00000000	0.0
186	0x00000000	0.0
187	0x00000000	0.0
188	0x00000000	0.0
189	0x00000000	0.0
190	0x00000000	0.0
191	0x00000000	0.0
192	0x00000000	0.0
193	0x00000000	0.0
194	0x00000000	0.0
195	0x00000000	0.0
196	0x00000000	0.0
197	0x00000000	0.0
198	0x00000000	0.0
199	0x00000000	0.0
200	0x00000000	0.0
201	0x00000000	0.0
202	0x00000000	0.0
203	0x00000000	0.0
204	0x00000000	0.0
205	0x00000000	0.0
206	0x00000000	0.0
207	0x00000000	0.0
208	0x00000000	0.0
209	0x00000000	0.0
210	0x00000000	0.0
211	0x00000000	0.0
212	0x00000000	0.0
213	0x00000000	0.0
214	0x00000000	0.0
215	0x00000000	0.0
216	0x00000000	0.0
217	0x00000000	0.0
218	0x00000000	0.0
219	0x00000000	0.0
220	0x00000000	0.0
221	0x00000000	0.0
222	0x00000000	0.0
223	0x00000000	0.0
224	0x00000000	0.0
225	0x00000000	0.0
226	0x00000000	0.0
227	0x00000000	0.0
228	0x00000000	0.0
229	0x00000000	0.0
230	0x00000000	0.0
231	0x00000000	0.0
232	0x00000000	0.0
233	0x00000000	0.0
234	0x00000000	0.0
235	0x00000000	0.0
236	0x00000000	0.0
237	0x00000000	0.0
238	0x00000000	0.0
239	0x00000000	0.0
240	0x00000000	0.0
241	0x00000000	0.0
242	0x00000000	0.0
243	0x00000000	0.0
244	0x00000000	0.0
245	0x00000000	0.0
246	0x00000000	0.0
247	0x00000000	0.0
248	0x00000000	0.0
249	0x00000000	0.0
250	0x00000000	0.0
251	0x00000000	0.0
252	0x00000000	0.0
253	0x00000000	0.0
254	0x00000000	0.0
255	0x00000000	0.0

bn1.running_mean f4 [256]
0	0xbe1414a7	-0.14461003
1	0xbd9beb18	-0.076132
2	0x3e6c9e62	0.23107293
3	0x3e735b1e	0.23765227
4	0x3df3e8b1	0.11909617
5	0x3d84dcea	0.064874485
6	0xbe218d15	-0.15776475
7	0x3cabd5ed	0.020976031
8	0xbd5349bf	-0.051584
9	0x3de2a48b	0.1106654
10	0x3d8ba135	0.06817857
11	0x3d91b1ec	0.07114014
12	0xbc24acc9	-0.010050961
13	0x3d71fddb	0.059079986
14	0xbd0ccffd	-0.03437804
15	0x3cb98ce8	0.022650197
16	0x3dfe9515	0.12430779
17	0xbd1e197c	-0.038598523
18	0xbdd321e8	-0.103092015
19	0x3dc53c52	0.09630646
20	0x3e10f2b6	0.14155087
21	0x3d5fbe1a	0.054624654
22	0x3df95461	0.12174297
23	0xbd4e5552	-0.050374337
24	0xbc6c268e	-0.014413489
25	0xbd5754be	-0.05257105
26	0xbd7c728e	-0.061632685
27	0xbdd2f658	-0.103008926
28	0xbe0fa903	-0.14029317
29	0xbebdd8db	-0.3707951
30	0x3e84e719	0.25957564
31	0x3d3b2f35	0.045699317
32	0xbe3db8b8	-0.18527496
33	0xbe2c94c0	-0.16853619
34	0xbcb3e078	-0.021957621
35	0x3e456ee4	0.19280583
36	0x3e185d13	0.14879255
37	0x3e0f2e7f	0.1398258
38	0xbd907399	-0.070532985
39	0x3e898794	0.2686125
40	0x3ccb1cf0	0.024794072
41	0xbe65f582	-0.22456935
42	0xbcc6fac6	-0.0242895
43	0x3d7fe4b6	0.062473975
44	0x3e2774f3	0.16353206
45	0x3e21b1b5	0.15790446
46	0x3e3126c9	0.17299952
47	0xbe4fa44d	-0.2027752
48	0x3d4ab1ac	0.049485847
49	0xbd29db75	-0.041469056
50	0x3e2a14d5	0.1660951
51	0x3d72f16f	0.05931228
52	0x3e1e1d93	0.15440969
53	0xbd1bcb0a	-0.03803543
54	0x3e22f908	0.1591531
55	0x3dda628a	0.10663326
56	0x3cae7ce6	0.02129979
57	0x3d3c2e63	0.045942675
58	0xbc9b6b5b	-0.01897209
59	0x3e2ac7e5	0.16677816
60	0x3d2a61f1	0.04159731
61	0x3d04657f	0.032323357
62	0xbcdf4497	-0.027254386
63	0xbd882ff9	-0.06649775
64	0x3dfea736	0.12434237
65	0x3dca5db6	0.09881155
66	0x3d9515b2	0.07279529
67	0x3da326bc	0.07966372
68	0xbdac771d	-0.084211566
69	0x3e7bbf91	0.24584796
70	0x3d06fcf0	0.032956064
71	0x3dc2532a	0.094885185
72	0xbd82fbad	-0.063956596
73	0x3e3d57c3	0.1849051
74	0x3d728f82	0.05921889
75	0xbc5f7728	-0.013639249
76	0x3e10f42b	0.14155643
77	0x3d8e2f48	0.06942612
78	0xbe33e2b3	-0.17566948
79	0xbc82d6e0	-0.015971601
80	0x3e4398c9	0.19101252
81	0xbca09e0b	-0.01960661
82	0x3bdb2eef	0.0066889445
83	0xbcf20e97	-0.029547973
84	0x3d12b93c	0.035821185
85	0x3d13e65b	0.036108356
86	0x3e49556b	0.1966149
87	0x3e954c3f	0.29159734
88	0x3c277c12	0.010222452
89	0x3db71a36	0.08940546
90	0x3d269bc3	0.04067589
91	0xbd8f937c	-0.07010552
92	0x3e286df1	0.1644819
93	0xbe496e5c	-0.19671005
94	0x3e30aeae	0.17254135
95	0x3e120e23	0.14263205
96	0xbe92bbc0	-0.28658867
97	0xbd353aeb	-0.04424564
98	0x3d210a7b	0.039316636
99	0xbb1dc15a	-0.0024071545
100	0x3e754902	0.23953632
101	0xbd7d286a	-0.06180612
102	0x3c8f7c4e	0.017515328
103	0x3de22cbb	0.11043688
104	0x3d61c274	0.055117086
105	0xbd706639	-0.058691237
106	0xbd2d0351	-0.04223949
107	0x3e1e8720	0.15481234
108	0xbd97340c	-0.07382974
109	0x3c9dadee	0.019247975
110	0xbdcf3d9e	-0.101191744
111	0xbd2ab568	-0.04167691
112	0xbdc051e4	-0.093906194
113	0xbba8cba4	-0.005151229
114	0xbdb0cad8	-0.086324394
115	0x3da8b5ea	0.08237822
116	0x3df85fe0	0.12127662
117	0x3e55c40c	0.20875567
118	0xbe020328	-0.12696517
119	0x3e0d9b4a	0.1382877
120	0xbd92fd92	-0.07177271
121	0x3dfecb92	0.12441172
122	0x3cfa3907	0.03054477
123	0xbe3b5f34	-0.18298036
124	0x3e7c1f13	0.24621229
125	0x3e13bf5c	0.14428467
126	0x3df64ed4	0.12026754
127	0x3c9fc80f	0.019504575
128	0xbdf35c9a	-0.11882897
129	0xbd228502	-0.039677627
130	0x3e63f428	0.22261107
131	0x3e79ccd7	0.24394546
132	0x3e78ae59	0.24285258
133	0x3dcb4ba4	0.09926537
134	0x3d0273cd	0.031848717
135	0xbe2496a7	-0.16073094
136	0xbdfb4416	-0.12268846
137	0x3e3804ef	0.17970632
138	0x3d8c007e	0.068360314
139	0x3d8e29e3	0.06941583
140	0xbe6aa3f1	-0.22914101
141	0x3d06ebcb	0.032939713
142	0x3d773d09	0.060360942
143	0xbd000a83	-0.031260025
144	0x3e41f7b1	0.18942143
145	0x3e401a12	0.18759945
146	0xbd8e383b	-0.06944319
147	0xbe9da9d8	-0.30793643
148	0x3e960d6f	0.29307124
149	0xbe1d4c9c	-0.15361255
150	0x3d9b9e23	0.075985216
151	0x3dcf887e	0.10133456
152	0x3deb4c38	0.11489147
153	0xbdfc01a1	-0.12304998
154	0x3d282de9	0.04105941
155	0xbde7c007	-0.11315923
156	0xbdd39b74	-0.10332385
157	0xbb54d8a2	-0.0032477756
158	0xbd512dce	-0.051069073
159	0x3e79baf7	0.24387728
160	0x3d8110a8	0.06302005
161	0x3df279ad	0.11839614
162	0x3d8e3dce	0.06945382
163	0xbe27bcee	-0.16380665
164	0xbe9805d7	-0.29691955
165	0x3d4e934d	0.050433446
166	0xbe61661d	-0.2201161
167	0x3c81ce6b	0.015845498
168	0x3db6ddd6	0.089290306
169	0x3d3d2497	0.046177473
170	0xbd55afcd	-0.05216961
171	0xbe0921ee	-0.1339185
172	0x3cdc628a	0.026902456
173	0x3d5e2012	0.054229803
174	0x3d5ade30	0.05343455
175	0xbd7958fa	-0.06087587
176	0x3dafe751	0.08589042
177	0x3e94ad84	0.29038632
178	0xbe9101f1	-0.28321794
179	0x3e2dff53	0.1699193
180	0xbdc622be	-0.09674595
181	0xbe1a82d8	-0.15088975
182	0xbd4f30e8	-0.05058375
183	0x3da0fbd7	0.07860535
184	0xbe080b80	-0.13285637
185	0xbdcf8cf5	-0.10134307
186	0xbcf7db23	-0.03025586
187	0x3d407710	0.046988547
188	0xbe8f5495	-0.27994218
189	0x3d66cb71	0.05634636
190	0x3d937343	0.07199719
191	0xbe73a1be	-0.23792168
192	0xbcad36ff	-0.021144388
193	0x3d8a07a2	0.06739737
194	0xbcca1a19	-0.024670647
195	0xbcc11b28	-0.02357252
196	0xbdc2c6cb	-0.09510573
197	0x3cdbb1b9	0.026818143
198	0x3dcd3621	0.1002009
199	0x3c31fa94	0.010862965
200	0xbd5f4c6f	-0.054516252
201	0x3e26e08a	0.16296592
202	0xbdccacd4	-0.09993902
203	0xbe53e6df	-0.20693539
204	0xbe285ae3	-0.1644092
205	0xbdb70904	-0.089372665
206	0xbdfc31a5	-0.123141564
207	0xbd9983ac	-0.074958175
208	0xbe08a49a	-0.1334404
209	0xbbcd8b60	-0.0062727183
210	0x3dee2f0a	0.11630066
211	0xbdbe2316	-0.09284036
212	0x3e567afd	0.20945354
213	0xbc6705da	-0.014100516
214	0x3df24261	0.11829067
215	0x3dcaaef2	0.098966494
216	0x3e1e8694	0.15481025
217	0xbe143a7a	-0.14475432
218	0xbe24eb08	-0.16105282
219	0x3e8091b4	0.25111163
220	0x3d602696	0.0547243
221	0xbd748eb8	-0.05970642
222	0xbc5d22f4	-0.013497103
223	0xbe1bbacd	-0.15207978
224	0xbdca689d	-0.09883235
225	0x3d7284e5	0.05920877
226	0xbd9a8bb0	-0.075461745
227	0xbe168290	-0.14698243
228	0xbd961071	-0.07327355
229	0x3dc2e784	0.09516814
230	0xbdd7ad81	-0.1053114
231	0xbe33715b	-0.1752371
232	0x3e343b9b	0.17600863
233	0xbd92eb8b	-0.071738325
234	0xbdf98fb2	-0.12185611
235	0xbe0643c0	-0.13111782
236	0x3ccb0369	0.0247819
237	0x3d90e6d5	0.07075278
238	0xbe4ea195	-0.20178826
239	0x3e6396d1	0.222255
240	0xbd7fa574	-0.062413648
241	0x3dada1c6	0.084781215
242	0x3c6f8378	0.014618747
243	0xbe1443d2	-0.14478996
244	0xbcb4f50f	-0.02208951
245	0xbe1e5671	-0.15462662
246	0xbd33b36a	-0.043872274
247	0xbe2d786e	-0.16940472
248	0xbcca44c9	-0.024691002
249	0x3d4264d9	0.047459457
250	0x3e2d5a60	0.16929007
251	0x3e61bea6	0.22045383
252	0xbcbcd70f	-0.023051767
253	0x3df8e3ef	0.1215285
254	0x3ea97050	0.330935
255	0x3cdc9c8f	0.026930122

bn1.running_var f4 [256]
0	0x3c8aa8c9	0.016926186
1	0x3ca28916	0.019840758
2	0x3cf4ea9c	0.029897027
3	0x3ca265a5	0.019823859
4	0x3caef07c	0.021354906
5	0x3cdae5a5	0.026720831
6	0x3ce9cbf6	0.028539639
7	0x3c8e7373	0.017389035
8	0x3ca3160f	0.01990798
9	0x3ccb5e30	0.024825186
10	0x3cce6b81	0.025197746
11	0x3cafad22	0.02144486
12	0x3ca39c46	0.019971978
13	0x3ca41fd0	0.0200347
14	0x3c800cf0	0.01563117
15	0x3c771857	0.015081487
16	0x3c9d9c3f	0.019239543
17	0x3c4ffefb	0.012695069
18	0x3cd98fdf	0.02655786
19	0x3ce0faae	0.027463283
20	0x3c7fad19	0.015605235
21	0x3cb20345	0.021730075
22	0x3cedfb31	0.029050441
23	0x3d15b77b	0.036551934
24	0x3d04391b	0.032281023
25	0x3c87b624	0.016566344
26	0x3ca62371	0.020280572
27	0x3cabc5b5	0.020968297
28	0x3c953ca1	0.018217387
29	0x3cff6d26	0.031179976
30	0x3cefd662	0.02927703
31	0x3cbb0911	0.022831472
32	0x3ceed73d	0.029155368
33	0x3ceaf6de	0.028682169
34	0x3cd541ae	0.026032295
35	0x3cdfd23a	0.027321924
36	0x3cb7eb39	0.02245103
37	0x3c9dcd56	0.01926295
38	0x3cb1d411	0.021707566
39	0x3d17b965	0.03704204
40	0x3c82b2d3	0.01595441
41	0x3d16dab7	0.036829676
42	0x3d0ca563	0.034337413
43	0x3cd7ce86	0.026343595
44	0x3cca9add	0.024732048
45	0x3c8c4fe4	0.017127939
46	0x3cc90f20	0.024543345
47	0x3ca7c3c0	0.020479083
48	0x3c849402	0.016183857
49	0x3c8b651f	0.017015992
50	0x3caef43f	0.0213567
51	0x3c8893c3	0.01667202
52	0x3ccc9060	0.024971187
53	0x3c6e0036	0.0145264175
54	0x3cd98ad1	0.02655545
55	0x3ccee5dc	0.02525609
56	0x3cc24e0a	0.023718853
57	0x3d11ff29	0.03564373
58	0x3ca98047	0.02069105
59	0x3cafe607	0.02147199
60	0x3ccd5e85	0.025069484
61	0x3ccc9093	0.024971282
62	0x3cad171b	0.021129182
63	0x3cc01884	0.02344919
64	0x3ce6db40	0.028180718
65	0x3c910ef7	0.017707331
66	0x3c9256b9	0.017863618
67	0x3c9b7bcd	0.018979931
68	0x3c8d5448	0.017252102
69	0x3d24034f	0.040042218
70	0x3c932381	0.017961266
71	0x3c972e95	0.01845483
72	0x3ca81140	0.020516038
73	0x3cc21ab6	0.023694377
74	0x3c96aaf4	0.018392064
75	0x3c9ef754	0.019405045
76	0x3d235b38	0.039881915
77	0x3c8505f7	0.016238196
78	0x3cba8f8f	0.022773532
79	0x3cbe6263	0.023240274
80	0x3c9448c6	0.018101107
81	0x3c4bfc8d	0.0124503495
82	0x3cf6005b	0.030029466
83	0x3d2b7a5d	0.04186474
84	0x3c860cbd	0.016363496
85	0x3ca20f0c	0.019782566
86	0x3ce6e6a2	0.028186146
87	0x3d17955c	0.037007675
88	0x3c39dbed	0.011343938
89	0x3ca84f02	0.020545486
90	0x3c96e38d	0.018419052
91	0x3cadc745	0.021213183
92	0x3cf4ccdd	0.029882843
93	0x3caff7d2	0.021480475
94	0x3cfe294e	0.031025555
95	0x3c86d189	0.016457336
96	0x3cb2da9d	0.021832759
97	0x3c8c0516	0.017092269
98	0x3cabe9af	0.020985452
99	0x3c82da17	0.015973134
100	0x3c930572	0.017946932
101	0x3c95a728	0.018268183
102	0x3cd1fccc	0.025633238
103	0x3ca5c32e	0.02023467
104	0x3cb67f4f	0.022277502
105	0x3c8a494e	0.016880658
106	0x3cafbb9a	0.02145176
107	0x3ca86e52	0.020560417
108	0x3ca464e5	0.020067642
109	0x3c8db8a4	0.017299958
110	0x3cb1de2e	0.021712389
111	0x3caad84a	0.020855088
112	0x3c762b02	0.015024902
113	0x3c4ff5ba	0.012692863
114	0x3c5024d0	0.012704089
115	0x3d03c3e2	0.03216923
116	0x3ccfa9a1	0.02534944
117	0x3c595ad1	0.013266281
118	0x3ce1d331	0.027566524
119	0x3d1b1350	0.037860215
120	0x3c80da98	0.015729234
121	0x3ce70591	0.028200896
122	0x3cbffe80	0.023436785
123	0x3cba6169	0.022751527
124	0x3d1568f7	0.036477055
125	0x3cabb877	0.020961983
126	0x3cbd6513	0.023119485
127	0x3cce27d8	0.025165483
128	0x3cb7db56	0.022443455
129	0x3cab79ae	0.020932045
130	0x3cd0c7c2	0.025485877
131	0x3cc60ce9	0.024176078
132	0x3cf6992d	0.030102337
133	0x3cbcf952	0.023068104
134	0x3c7aebc4	0.015315
135	0x3c9a43d9	0.01883118
136	0x3cb8c99c	0.022557072
137	0x3cad1517	0.02112822
138	0x3d00e299	0.0314661
139	0x3c8f9e80	0.017531633
140	0x3cc87c2d	0.024473274
141	0x3caa5598	0.020792767
142	0x3cd2ebf6	0.02574728
143	0x3ce3255d	0.027727777
144	0x3c813601	0.015772821
145	0x3cc99285	0.024605999
146	0x3cd16821	0.025562348
147	0x3d174aa1	0.036936406
148	0x3ce98d81	0.028509857
149	0x3cac3771	0.02102253
150	0x3cc46acc	0.023976706
151	0x3cb4d9c5	0.022076497
152	0x3ca89bea	0.020582158
153	0x3ca1254a	0.019671101
154	0x3ca15603	0.019694334
155	0x3cbd86d4	0.02313558
156	0x3cab4326	0.020906042
157	0x3cf862ad	0.03032049
158	0x3cb799c2	0.022412185
159	0x3cd17749	0.025569575
160	0x3ca0b588	0.01961781
161	0x3cc3566c	0.02384492
162	0x3ca22584	0.01979328
163	0x3cbebe13	0.023283994
164	0x3cdd5a07	0.027020467
165	0x3c6ebef6	0.014571896
166	0x3cec6366	0.02885599
167	0x3cf19e9b	0.029494574
168	0x3ca33333	0.019921875
169	0x3cda457b	0.026644459
170	0x3c96f999	0.018429564
171	0x3cb1e4be	0.021715518
172	0x3cc409c2	0.023930434
173	0x3c77efc6	0.01513285
174	0x3cc100c7	0.023559941
175	0x3cb35996	0.021893304
176	0x3c8a51b7	0.016884668
177	0x3cd63699	0.026149081
178	0x3cc74709	0.024325864
179	0x3cdb08c4	0.026737578
180	0x3d2343cc	0.039859578
181	0x3d2a7eb5	0.041624743
182	0x3cbba66f	0.02290651
183	0x3c888e0f	0.016669301
184	0x3ca6c987	0.020359768
185	0x3cb7a57d	0.022417778
186	0x3cb41a68	0.021985248
187	0x3cfb62ea	0.030686814
188	0x3d2437bc	0.040092215
189	0x3cccfe8d	0.025023723
190	0x3c968d82	0.018378023
191	0x3d1fdef8	0.039031
192	0x3c9cd221	0.019143166
193	0x3cb7a1d3	0.022416031
194	0x3c542687	0.012948639
195	0x3caa8e6d	0.020819867
196	0x3c7c8ebc	0.01541489
197	0x3c9d4628	0.019198492
198	0x3ca35cd6	0.019941729
199	0x3cbd9502	0.023142342
200	0x3cc52d43	0.024069434
201	0x3ca9c90e	0.020725753
202	0x3cfebbf9	0.031095492
203	0x3cba1e63	0.022719568
204	0x3ce05c64	0.027387805
205	0x3ca8a148	0.020584717
206	0x3cbc5d0e	0.02299359
207	0x3c9e179f	0.019298373
208	0x3cba2826	0.022724222
209	0x3c88e3bf	0.01671016
210	0x3ca7a68d	0.02046516
211	0x3ccbd475	0.02488158
212	0x3d0b0037	0.03393575
213	0x3caa68d2	0.020801935
214	0x3cacbd35	0.021086315
215	0x3c6ab70e	0.01432587
216	0x3ca7eeef	0.020499675
217	0x3cd13ac7	0.025540723
218	0x3ca91278	0.02063869
219	0x3cf6ae5d	0.03011244
220	0x3cb649e7	0.022252036
221	0x3cac14a3	0.021005934
222	0x3c9713fe	0.01844215
223	0x3cd1fb13	0.025632417
224	0x3cd80c23	0.026372975
225	0x3cb38f62	0.021918956
226	0x3cc22b0d	0.023702169
227	0x3cd5d8a8	0.026104286
228	0x3c7cfcde	0.015441148
229	0x3c9c7121	0.019096913
230	0x3ca2bde0	0.01986593
231	0x3c929a87	0.01789595
232	0x3c974e77	0.018470032
233	0x3c989c44	0.0186292
234	0x3cb6047e	0.022218939
235	0x3cb909ed	0.02258774
236	0x3cb45935	0.022015193
237	0x3c97e1bf	0.018540261
238	0x3cf948b6	0.03043018
239	0x3ce78584	0.028261907
240	0x3cb429ae	0.02199253
241	0x3c8881c8	0.016663447
242	0x3d107326	0.035266064
243	0x3cef1bf2	0.02918813
244	0x3c4b3a5a	0.012404049
245	0x3cfea147	0.031082762
246	0x3d16c855	0.036812145
247	0x3ca1e1db	0.019761017
248	0x3cd62b0b	0.026143571
249	0x3c5a29b9	0.0133156115
250	0x3cdba296	0.026810925
251	0x3d13bb94	0.03606756
252	0x3cb864cb	0.022509
253	0x3c8fb12b	0.017540535
254	0x3cdef141	0.027214648
255	0x3c82490e	0.015903976

fc2.weight f4 [10, 256]
0	0x3da8a3ac	0.08234343
1	0xbea082c5	-0.3134977
2	0x3df11838	0.117721975
3	0xbdc46071	-0.09588707
4	0x3e23ed73	0.16008548
5	0xbe130b76	-0.14359841
6	0xbe98e57d	-0.29862586
7	0x3ce166a6	0.027514767
8	0xbdfc2015	-0.12310807
9	0xbde84645	-0.11341528
10	0x3cb6122a	0.022225458
11	0x3c3d07eb	0.011537532
12	0x3dc328c1	0.095292576
13	0x3e1eaf0f	0.15496467
14	0xbdfa3d93	-0.122187756
15	0xbe2f993b	-0.17148297
16	0xbe1e599a	-0.15463868
17	0xbe9d5c16	-0.30734318
18	0x3d40a8e6	0.047036074
19	0xbbca92d5	-0.0061820545
20	0xbe2d258a	-0.16908851
21	0x3b29774e	0.0025858465
22	0xbd1a894e	-0.0377286
23	0x3e4d962e	0.2007682
24	0x3df028fd	0.11726568
25	0x3dabd20a	0.08389671
26	0xbc3ba59c	-0.011453059
27	0xbdd9b099	-0.106293865
28	0x3c922436	0.017839532
29	0xbd1f2621	-0.038854722
30	0xbe49f89b	-0.19723742
31	0xbd662847	-0.056190755
32	0xbd4d6977	-0.050149407
33	0x3cd69595	0.026194373
34	0x3e3ddee4	0.18542057
35	0xbe63970b	-0.22225587
36	0x3dcc7464	0.09983137
37	0xbaf7acdf	-0.0018896124
38	0xbd2db60b	-0.042409938
39	0x3e1f145e	0.15535113
40	0x3d25adc5	0.040448923
41	0xbe96c4a7	-0.2944691
42	0x3d81ab8e	0.063315496
43	0xbd3b483e	-0.045723192
44	0xbb3a32a0	-0.0028411523
45	0xbd04e161	-0.0324415
46	0xbd8cc2d8	-0.06873101
47	0xbd3fcf0b	-0.04682831
48	0xbca92021	-0.020645203
49	0x3acd87c4	0.001568072
50	0x3db4b4df	0.08823561
51	0x3e2bd86a	0.16781774
52	0x3e8a9738	0.27068496
53	0x3e135b0d	0.14390202
54	0x3ea52d90	0.32261324
55	0x3e457d95	0.19286187
56	0x3e16074b	0.1465122
57	0x3ea65963	0.32490072
58	0x3dded89d	0.108811595
59	0x3ca09d68	0.019606307
60	0x3e91ad77	0.28452656
61	0xbd0248ca	-0.0318077
62	0xbc0a8b33	-0.008456039
63	0xbd24f676	-0.040274106
64	0x3e9be9e5	0.30451885
65	0xbe0865b9	-0.13320054
66	0xbe2441b7	-0.16040693
67	0xbdb8ebc2	-0.09029342
68	0x3cc472d4	0.023980536
69	0xbb26ea35	-0.0025469188
70	0x3d60b72f	0.054862197
71	0xbd846a4b	-0.06465586
72	0x3deae78d	0.11469946
73	0x3d8adf00	0.06780815
74	0x3cac3247	0.021020068
75	0xbe509ded	-0.20372744
76	0xbe28a27f	-0.16468237
77	0x3d085245	0.033281583
78	0xbead0ecd	-0.33800355
79	0xbe1713b6	-0.14753613
80	0x3e0686a3	0.13137297
81	0xbc942c8b	-0.018087646
82	0x3cbf6b68	0.023366645
83	0x3e3e156c	0.1856286
84	0xbdaab076	-0.083344385
85	0x3db3ee69	0.087857075
86	0xbea25466	-0.31705016
87	0xbd5b0564	-0.053471938
88	0xbd385721	-0.045004968
89	0xbe3d9c05	-0.18516548
90	0xbcf52ffe	-0.029930111
91	0xbd2664f6	-0.040623628
92	0x3d647299	0.05577335
93	0xbdb29684	-0.08720115
94	0xbc10e72e	-0.00884418
95	0xbcbbd604	-0.022929199
96	0xbcf1cfc9	-0.029518025
97	0x3d0db995	0.034600813
98	0xbe38f8b6	-0.18063626
99	0xbea11f30	-0.31469107
100	0xbdd037bb	-0.1016688
101	0xbe7ad383	-0.24494748
102	0x3da479eb	0.080310665
103	0xbdd16076	-0.102234766
104	0xbda2f3f0	-0.07956684
105	0x3e54ce61	0.20781852
106	0xbde2a54a	-0.11066683
107	0xbd8280c9	-0.0637222
108	0x3dd5bcbe	0.1043639
109	0xbc1cbd73	-0.009566653
110	0x3c614a2d	0.013750595
111	0x3d7c79de	0.06163966
112	0xbd45ee6f	-0.04832309
113	0xbde96abc	-0.11397311
114	0x3c2f7ca9	0.010710874
115	0xbe64a1c9	-0.22327341
116	0x3c57da6a	0.013174633
117	0xbd86b394	-0.065772206
118	0xbdc0916f	-0.09402739
119	0x3e48b993	0.19602041
120	0x3e245586	0.1604825
121	0x3e195171	0.14972474
122	0x3d761ec5	0.060087938
123	0xbe1e8b82	-0.15482906
124	0x3d4c3888	0.0498586
125	0x3d200a0f	0.039072093
126	0x3e43c0a6	0.19116458
127	0xbe5cbaf7	-0.21555696
128	0x3d973e56	0.073849365
129	0xbd4da4e5	-0.050206084
130	0xbe0a1fcc	-0.13488692
131	0x3e650d78	0.22368419
132	0xbdce6d15	-0.100793995
133	0x3d2fe11a	0.042939283
134	0x3dd323d3	0.10309567
135	0x3e73fff1	0.23828103
136	0xbe0b268b	-0.13588922
137	0x3daac521	0.083383806
138	0xbe2db7b8	-0.16964614
139	0xbcf7958f	-0.030222682
140	0x3e1ea971	0.15494324
141	0xbd418e6f	-0.047254976
142	0xbe387dae	-0.18016693
143	0x3c2407d5	0.010011633
144	0x3d2e31c7	0.04252794
145	0xbc8724c5	-0.016497025
146	0x3e32eb0e	0.17472479
147	0xbde7f120	-0.11325288
148	0xbd327f2b	-0.043578308
149	0xbe103cf1	-0.14085747
150	0x3ed23617	0.41056892
151	0x3cf1c7ad	0.029514158
152	0xbce71aa3	-0.028210944
153	0xbe614f9c	-0.22003025
154	0x3d9302d1	0.071782716
155	0x3a267c44	0.00063509145
156	0x3d2b5749	0.04183129
157	0xbe61e7d9	-0.22061099
158	0xbd6ee87f	-0.058327194
159	0xbeb0b284	-0.34511197
160	0x3e72cf49	0.23711886
161	0x3dceb75f	0.10093569
162	0xbca3e928	-0.020008639
163	0x3e27d15f	0.16388462
164	0x3e53b8a0	0.20675898
165	0x3d3b1057	0.04566988
166	0xbea4ec98	-0.32211757
167	0xbe33cbd0	-0.17558217
168	0x3b90f3d9	0.0044236
169	0x3dfd9a23	0.12382915
170	0x3d9d996c	0.076952785
171	0xbc6a0f47	-0.014285869
172	0x3d192fa4	0.03739895
173	0xbe4359f0	-0.19077277
174	0x3dca787d	0.098862626
175	0x3e4c3aa6	0.19944248
176	0xbd235e56	-0.039884888
177	0x3cef6dc3	0.029227143
178	0x3d045e58	0.032316536
179	0xbda2b7ba	-0.07945199
180	0xbe7836ca	-0.2423965
181	0xbd044cbc	-0.032299742
182	0xbe020ccc	-0.12700194
183	0xbde0552b	-0.109537445
184	0x3dcea27c	0.10089585
185	0xbcfe6ed3	-0.031058704
186	0x3ae0cc54	0.0017150738
187	0x3e6302b0	0.22168994
188	0x3da0072f	0.0781387
189	0x3e9e525c	0.3092221
190	0x3dcd8e9d	0.10036967
191	0x3d8dfee4	0.06933382
192	0xbdc435c7	-0.0958057
193	0xbe80aa41	-0.25129893
194	0xbe30dab8	-0.17270935
195	0x3e043c8e	0.12913725
196	0xbc7c4686	-0.0153976735
197	0xbe89e6ea	-0.26933986
198	0xbd3686aa	-0.04456202
199	0xbdcb4865	-0.099259175
200	0xbe8162bf	-0.2527065
201	0x3d6b7d1f	0.05749237
202	0x3d218adf	0.03943908
203	0x3c67c055	0.014144977
204	0x3d60c72a	0.054877438
205	0x3a959c70	0.001141442
206	0x3db69c8f	0.0891658
207	0x3d421588	0.047383815
208	0x3c07d5f2	0.008290755
209	0xbd0cc576	-0.034368
210	0x3e439a4f	0.19101833
211	0x3e03db80	0.12876701
212	0x3e089043	0.13336281
213	0x3ceeda65	0.029156873
214	0x3db2413a	0.08703847
215	0x3e044947	0.12918578
216	0x3e4e566f	0.2015016
217	0x3deba901	0.11506844
218	0x3de17ecb	0.11010512
219	0x3d85f3b9	0.06540627
220	0x3e0997e6	0.13436851
221	0xbc25012c	-0.01007108
222	0x3e21f794	0.158171
223	0x3e3d20bb	0.18469517
224	0xbdef3552	-0.11680092
225	0xbe0b324e	-0.13593408
226	0xbe41941e	-0.18904158
227	0x3e07b851	0.13253905
228	0x3e0466e9	0.12929882
229	0xbdbd4251	-0.092411645
230	0xbd1145d6	-0.03546699
231	0x3e1033ac	0.14082211
232	0xbdf4ed73	-0.11959352
233	0x3e371475	0.17878897
234	0x3d826c7a	0.063683465
235	0x3d847d43	0.06469204
236	0x3d704322	0.058657773
237	0xbda18ff9	-0.07888789
238	0x3dd79fd4	0.10528532
239	0x3dc1cfec	0.09463486
240	0x3e0e4385	0.13892944
241	0x3ddb7674	0.107159525
242	0xbb9108e9	-0.004426111
243	0xbd39e18a	-0.045381106
244	0x3c645596	0.013936421
245	0xbd33de3d	-0.043913115
246	0x3de81453	0.113320015
247	0x3e2192ca	0.15778652
248	0x3e158f8b	0.14605539
249	0xbdd03993	-0.101672314
250	0xbbabec63	-0.0052466854
251	0x3d8a897d	0.06764505
252	0xbda99c64	-0.08281782
253	0x3d5cf588	0.053945094
254	0xbe6ba8fd	-0.23013683
255	0x3e0a0f38	0.13482368

fc2.bias f4 [10]
0	0xbf9278f6	-1.1443164
1	0xbfb94192	-1.4473135
2	0x3f17f7e6	0.5936264
3	0x3f051810	0.5198984
4	0xbf460ba5	-0.7736152
5	0x3f8d04ab	1.101705
6	0xbf558f41	-0.83421713
7	0xbf5087f1	-0.8145743
8	0x3f9fe498	1.2491636
9	0x3eb7f8ec	0.359321
