software_with pruning/best_bnn_model.pth (torch, 821783 bytes, 8 tensors)

fc1.weight f4 [256, 784]
0.020073777 0.026825953 -0.033692792 0.017833536 -0.0089889215 -0.021803107 -0.034424424 0.008901089
0.010990472 -0.035584338 -0.011928512 -0.0107154595 0.030120358 -0.010868077 -0.019588172 -0.031441588
0.009142753 -0.0055735963 0.03476219 -0.022644151 -0.03246795 0.02586972 -0.027950786 -0.020962294
0.012327382 0.012452092 0.023218667 0.0052853315 0.018877065 0.024458209 0.029604394 -0.0049289423
0.016225092 0.028531548 0.026098631 0.010833051 -0.011420259 0.019361556 -0.0033375963 -0.030680709
0.031291336 0.012111546 0.009015101 0.01192643 0.029580386 0.01878041 -0.013104758 -0.007277157
0.020042727 -0.023221929 0.020069387 -0.01901255 -0.013748221 -0.030072847 -0.03187619 -0.027952995
-0.033052284 -0.017108377 0.0076059573 -0.027390072 -0.02699332 -0.020385245 -0.024590405 -0.020557864
0.024854917 -0.0101925135 -0.002813748 0.00546713 0.024523932 0.002931893 0.007371596 0.024431668
0.02014218 0.01232023 -0.035547774 0.021582557 -0.031767234 0.021473374 -0.024321463 0.0261145
-0.013137507 0.02836775 0.025147285 -0.024571666 0.013446135 0.008024514 0.0052430206 -0.026109105
-0.013703398 -0.030618366 -0.027067054 0.035127804 0.013078363 0.008456175 0.02572351 -0.0070141857
0.003214504 0.02852654 0.017910725 0.03521418 -0.0017422056 0.025062958 -0.019548532 -0.011498333
0.0051411306 -0.024463106 -0.028809043 -0.024340656 -0.009027022 0.0032416966 -0.0010144114 -0.0043429183
0.020454966 0.031954877 -0.002154661 -0.02509023 -0.0077675115 0.028200397 -0.011835056 -0.028156057
-0.0051957713 0.028902017 0.0037779086 0.013250683 -0.035545316 -0.010594326 0.0024546045 0.029884662
0.016900804 0.0006553999 -0.029265072 0.020785196 -0.0035656777 0.0027034667 -0.01579181 -0.0016656561
0.029165197 0.030249584 -0.03046993 -0.027776822 -0.020195672 0.021904113 0.008917779 -0.0150037585
-0.010907446 -0.012160319 0.0044865143 0.008351114 0.0012824961 0.0233916 0.009805565 0.030919395
-0.0081795715 0.017469836 -0.0054544043 -0.012014296 -0.023961477 -0.0019795555 -0.021173857 0.03174059
-0.0032824364 -0.007330286 -0.0006148943 -0.009009941 0.002714319 -0.035265114 0.015366845 -0.01855933
-0.0033994403 -0.002168681 0.025581948 0.017383615 0.03517759 0.01650526 0.0003867277 0.022805031
-0.011761125 0.021578781 -0.023347082 -0.004803947 -0.025406204 0.0262193 0.0027289095 0.020815104
-0.03393408 -0.032064192 0.019235488 -0.029310891 -0.008476487 0.022324461 0.0024682113 -0.01031934
0.034941524 -0.026132056 -0.003226357 0.0044513047 -0.02219273 0.02900879 0.01762968 -0.024160685
-0.0044618845 -0.027130166 0.028952941 -0.03059406 -0.035405617 0.029697271 -0.016867932 -0.025568388
-0.02652595 0.030321442 -0.022099007 -0.0321068 0.0344468 0.005529583 -0.011884575 0.035553455
-0.024972243 -0.01555729 0.0022871452 -0.012138883 0.007502539 0.0007764442 0.018761763 -0.005028248
0.019661486 0.034089785 0.01882396 0.03449881 0.012170805 -0.025818894 -0.010001098 0.004485786
0.018489715 0.003777006 -0.0011009532 0.021652056 0.025931593 0.03170095 0.025378842 -0.0066340314
0.017887155 0.020451767 -0.002697038 0.0014652909 -0.02486964 -0.022270149 -0.010538561 0.01164321
-0.010422486 0.008296895 0.007287294 -0.03228883 -0.028260943 0.008212188 0.0129641425 0.0026562044
00000000: c371 a43c 1ac2 db3c 7401 0abd a317 923c
00000010: 4546 13bc 6e9c b2bc a000 0dbd e0d5 113c
00000020: 6111 343c e2c0 11bd ce6f 43bc e58f 2fbc
00000030: f8be f63c 0510 32bc 6077 a0bc e5c8 00bd
00000040: 7ccb 153c b7a2 b6bb cc62 0e3d 3a80 b9bc
00000050: 1dfd 04bd bcec d33c 0cf9 e4bc 1eb9 abbc
00000060: caf8 493c dc03 4c3c 1335 be3c 9330 ad3b
00000070: 13a4 9a3c 955c c83c ea84 f23c f782 a1bb
00000080: 7cea 843c feba e93c cccc d53c 1c7d 313c
00000090: 0a1c 3bbc 209c 9e3c 93bb 5abb 1c56 fbbc
000000a0: 582b 003d 816f 463c 13b4 133c 1367 433c
000000b0: 9152 f23c 60d9 993c 57b5 56bc 3875 eebb
000000c0: a530 a43c ea3b bebc 8e68 a43c 35c0 9bbc
000000d0: 3840 61bc 555b f6bc 9c90 02bd aefd e4bc
000000e0: d561 07bd de26 8cbc 653b f93b 2561 e0bc
000000f0: 1821 ddbc f5fe a6bc d171 c9bc f768 a8bc
00000100: 8a9c cb3c 80fe 26bc dc66 38bb 9c25 b33b
00000110: 6ae6 c83c 0125 403b 6e8d f13b ec24 c83c
00000120: 3701 a53c cada 493c 8b9a 11bd e7cd b03c
00000130: 5c1e 02bd eee8 af3c ce3d c7bc 13ee d53c
00000140: b33e 57bc 7c63 e83c ae01 ce3c 854a c9bc
00000150: 2e4d 5c3c 4079 033c a5cd ab3b c3e2 d5bc
00000160: 3884 60bc 5ed3 fabc babb ddbc 2ce2 0f3d
00000170: a146 563c c58b 0a3c 1cba d23c 41d7 e5bb
00000180: 6eaa 523b 7eb0 e93c 83b9 923c be3c 103d
00000190: b85a e4ba d550 cd3c 3e24 a0bc 8163 3cbc
000001a0: ee76 a83b da66 c8bc f100 ecbc 0e66 c7bc
000001b0: 13e6 13bc a572 543b 00f6 84ba 0a4f 8ebb
000001c0: 2c91 a73c 1ee3 023d 3735 0dbb 078a cdbc
000001d0: 9c86 febb 8504 e73c d3e7 41bc 88a7 e6bc
000001e0: 4a41 aabb ecc3 ec3c ca96 773b 6519 593c
000001f0: f797 11bd d393 2dbc 6edd 203b aed0 f43c
00000200: 8e73 8a3c 25cf 2b3a 4ebd efbc b745 aa3c
00000210: 25ae 69bb a52c 313b d35d 81bc 2552 daba
00000220: daeb ee3c facd f73c 139c f9bc 388c e3bc
00000230: 6571 a5bc 4170 b33c e01b 123c 53d2 75bc
00000240: 25b5 32bc 133c 47bc 9c03 933b 1cd3 083c
00000250: 6e19 a83a be9f bf3c 85a7 203c ac4a fd3c
00000260: 9c03 06bc e71c 8f3c dcba b2bb 9cd7 44bc
00000270: dc4a c4bc 6ebb 01bb cc74 adbc 6c02 023d
00000280: 251e 57bb e532 f0bb dc30 21ba 6e9e 13bc
00000290: b7e2 313b 2772 10bd 38c5 7b3c bc09 98bc
000002a0: 25c9 5ebb 6e20 0ebb 3c91 d13c 1568 8e3c
000002b0: 6016 103d 0a36 873c b7c1 ca39 9ed1 ba3c
000002c0: bcb1 40bc fcc5 b03c 6142 bfbc 6e6a 9dbb
000002d0: ac20 d0bc dcc9 d63c 81d7 323b 7084 aa3c
000002e0: 76fe 0abd be55 03bd be93 9d3c 651d f0bc
000002f0: f7e0 0abc cae1 b63c b7c1 213b 7312 29bc
00000300: d81e 0f3d e512 d6bc 4a71 53bb 40dc 913b
00000310: 87cd b5bc d8a3 ed3c 1e6c 903c a1ec c5bc
00000320: 0035 92bb 1540 debc b82e ed3c 65a0 fabc
00000330: 7b05 11bd b147 f33c 9e2e 8abc cc74 d1bc
00000340: f34c d9bc ac64 f83c fa08 b5bc 6b82 03bd
00000350: 1618 0d3d 8131 b53b 85b7 42bc 80a0 113d
00000360: 9792 ccbc 01e4 7ebc eee3 153b 2ae2 46bc
00000370: dcd7 f53b 4a8a 4b3a 45b2 993c 00c4 a4bb
00000380: 2011 a13c bba1 0b3d b534 9a3c a04e 0d3d
00000390: 0e68 473c 2582 d3bc a5db 23bc 80fd 923b
000003a0: be77 973c a587 773b dc4d 90ba a75f b13c
000003b0: 7e6e d43c dbd8 013d 4ae7 cf3c 4a62 d9bb
000003c0: 1588 923c 778a a73c cac0 30bb 010f c03a
000003d0: 6abb cbbc e36f b6bc eea9 2cbc 2ac3 3e3c
000003e0: 13c3 2abc b3ef 073c 41ca ee3b 4b41 04bd
000003f0: 7e83 e7bc 6a8c 063c 8e67 543c b713 2e3b

fc1.bias f4 [256]
0.008066854 -0.013218654 0.035513904 -0.025508184 -0.027951434 0.00084310776 0.0064081554 -0.03512843
-0.026719341 -0.012218012 -0.0027406686 -0.030644562 0.010015744 -0.0012671181 0.0030797848 -0.006380196
0.022096021 0.013088933 0.012060494 -0.031968143 0.025135957 -0.026357044 0.025499754 -0.027273022
0.004034413 -0.008513886 -0.0037805226 0.034620762 -0.012584052 -0.0012574282 -0.026642073 -0.010241828
0.006216007 0.0027944106 0.032078154 -0.0279446 0.034750868 -0.0283321 -0.031726886 -0.027903767
-0.026861945 0.0117935585 -0.0071256123 0.0058424347 0.027010387 0.012043213 -0.02244639 0.02263094
0.029766783 -0.03165917 -0.035581272 -0.02844536 0.0292806 0.03142943 0.029052969 -0.014114343
-0.023600234 0.0042751776 -0.030333217 -0.024377773 -0.0014578871 0.032660246 -0.0020834762 0.019023398
-0.0059937327 -0.035226922 -0.031815853 0.007949276 -0.0008542112 -0.035151113 0.033009704 -0.021928074
0.035080787 0.032970726 0.008687913 -0.023631426 0.014412131 0.002683099 0.008793695 0.020711994
-0.00080043933 -0.026486091 0.03137829 0.008106028 -0.0122552775 -0.026090767 -0.0327387 0.0076872795
0.018838411 -0.029877933 0.026380694 -0.022506727 -0.01820686 -0.013980764 -0.031999554 0.0014284637
-0.0036513167 -0.031606693 -0.020483358 0.008238993 -0.0197769 -0.03433459 0.031773817 -0.008148709
-0.008111137 0.0013139376 0.026511576 -0.011137972 0.017078906 0.027401432 0.030217849 -0.023717059
-0.03060794 -0.022961106 -0.004763088 -0.012071619 0.009294821 -0.009727223 0.013889203 -0.024620546
-0.0076953135 0.024072474 -0.0005442713 -0.014638092 0.032416694 -0.03354557 0.009834928 -0.010233816
-0.027229344 0.020745933 0.024696214 0.0061140447 0.015942132 -0.023851741 0.03137913 0.016536986
0.012548562 -0.0115906345 0.0087292455 0.025860203 0.01861998 0.034552455 -0.016856875 0.01036759
0.013204528 -0.015338013 -0.030946912 -0.018947113 -0.0011030777 -0.0148826465 0.02433954 -0.014713573
-0.011235101 0.015467155 0.026238732 0.01611131 0.019033045 0.022387352 -0.032216057 0.011922347
0.019142896 -0.017631076 0.00694438 0.008043626 0.035264265 -0.019645466 0.0085860025 0.012742443
-0.030883782 0.015777716 -0.025457783 -0.030941108 0.011717895 -0.0064446973 -0.013076676 -0.01715581
0.013460079 0.018339524 -0.01435305 0.0063512838 0.008748132 -0.02028603 -0.0005017562 -0.0315923
0.00034342922 0.0029335662 -0.033382 0.0068854694 0.033933636 0.03130099 -0.017060842 0.024048006
-0.03240968 0.011164189 0.025255574 -0.028850034 0.02830655 -0.020882 -0.030494329 -0.029804917
0.03043707 0.008517585 -0.02413152 -0.020129073 -0.021796973 -0.02590438 0.009286336 0.009294531
0.011808243 -0.020041216 -0.0062166625 0.0013697871 0.022957496 0.027845167 0.032462846 -0.011528901
-0.010629854 -0.0076820683 0.017775442 0.024730844 -0.019414848 -0.012799741 -0.020505488 -0.003967328
-0.012988807 0.026013482 -0.019968715 0.021065678 -0.034982245 0.0162899 0.029617282 -0.014688493
0.019994358 -0.003002533 -0.020540362 0.015656967 -0.016566597 -0.021008186 0.020592192 0.014966638
-0.019114811 -0.011799234 0.035175502 -0.0074197697 0.015127945 -0.01452753 0.020005947 -0.010479412
0.016852213 0.0007185383 -0.009043524 -0.009834141 0.019447226 0.00012863109 -0.0076147662 -0.0035342448
00000000: d72a 043c 0e93 58bc 0777 113d 8af6 d0bc
00000010: 68fa e4bc 0104 5d3a 81fb d13b d4e2 0fbd
00000020: 85e2 dabc 0e2e 48bc ca9c 33bb 4e0a fbbc
00000030: 1319 243c 6e15 a6ba 37d6 493b f710 d1bb
00000040: b702 b53c f772 563c 6199 453c 07f1 02bd
00000050: ece9 cd3c baea d7bc dce4 d03c ac6b dfbc
00000060: 1c33 843b d37d 0bbc a5c2 77bb 80ce 0d3d
00000070: 572d 4ebc 4ad0 a4ba 7a40 dabc 57cd 27bc
00000080: a5af cb3b 6e22 373b 6264 033d 13ec e4bc
00000090: ed56 0e3d b818 e8bc 0df4 01bd 7196 e4bc
000000a0: 950d dcbc c539 413c f87d e9bb e571 bf3b
000000b0: e344 dd3c e550 453c 7ee1 b7bc 8564 b93c
000000c0: 78d9 f33c 0cad 01bd abbd 11bd 3e06 e9bc
000000d0: dedd ef3c 25bc 003d 7e00 ee3c d83f 67bc
000000e0: 4755 c1bc ca16 8c3b 5e7d f8bc e5b3 c7bc
000000f0: 9316 bfba c0c6 053d ee8a 08bb f5d6 9b3c
00000100: 1367 c4bb 1b4a 10bd 5751 02bd ae3d 023c
00000110: 25ed 5fba 9dfa 0fbd 2f35 073d 81a2 b3bc
00000120: dfb0 0f3d 500c 073d c057 0e3c b196 c1bc
00000130: dc20 6c3c eed6 2f3b 6e13 103c 33ac a93c
00000140: 93d4 51ba 5cf9 d8bc 8686 003d 25cf 043c
00000150: 5cca 48bc 4ebc d5bc 0419 06bd 93e5 fb3b
00000160: 0353 9a3c 91c2 f4bc 531c d83c 0760 b8bc
00000170: 8e26 95bc 930f 65bc f711 03bd 4a3b bb3a
00000180: ee4a 6fbb 0576 01bd b7cc a7bc d7fc 063c
00000190: 2a03 a2bc 6da2 0cbd 4325 023d 2a82 05bc
000001a0: 93e4 04bc 6e38 ac3a ce2e d93c 0a7c 36bc
000001b0: 10e9 8b3c f878 e03c 6c8b f73c 474a c2bc
000001c0: 81bd fabc ee18 bcbc ae13 9cbb 0ac8 45bc
000001d0: 4e49 183c ee5e 1fbc 8a8f 633c 07b1 c9bc
000001e0: f828 fcbb a333 c53c 6ead 0eba 9cd4 6fbc
000001f0: 5ec7 043d 1467 09bd ae22 213c bcab 27bc
00000200: 1310 dfbc 60f3 a93c b74f ca3c 5358 c83b
00000210: 1399 823c ba64 c3bc 6787 003d 9378 873c
00000220: 7c98 4d3c a5e6 3dbc 1c05 0f3c c7d8 d33c
00000230: ee88 983c e086 0d3d 6e17 8abc d3dc 293c
00000240: ce57 583c 4a4c 7bbc 6184 fdbc fa36 9bbc
00000250: 2595 90ba 58d6 73bc b763 c73c 3311 71bc
00000260: 6e13 38bc f369 7d3c 9cf2 d63c defb 833c
00000270: 30eb 9b3c ae65 b73c fcf4 03bd f355 433c
00000280: 90d1 9c3c 0c6f 90bc ae8d e33b 6ac9 033c
00000290: 4371 103d 87ef a0bc 4eac 0c3c aec5 503c
000002a0: fcff fcbc 4540 813c d78c d0bc 3578 fdbc
000002b0: 6afc 3f3c 0a2e d3bb 8e3f 56bc 578a 8cbc
000002c0: aa87 5c3c c53c 963c 0e29 6bbc 6e1e d03b
000002d0: 5354 0f3c e32e a6bc 4a88 03ba ed66 01bd
000002e0: 4a0e b439 1341 403b 90bb 08bd 819f e13b
000002f0: fffd 0a3d 7835 003d 2ec3 8bbc 5300 c53c
00000300: 03c0 04bd 01ea 363c c7e4 ce3c e856 ecbc
00000310: 23e3 e73c ba10 abbc 3ecf f9bc 7129 f4bc
00000320: 2a57 f93c 578d 0b3c 77af c5bc bae5 a4bc
00000330: 918f b2bc 6c35 d4bc b725 183c 1748 183c
00000340: 5c77 413c 7a2d a4bc 25b5 cbbb 6e8a b33a
00000350: 5c11 bc3c 8c1b e43c c3f7 043d b7e3 3cbc
00000360: d728 2ebc dcb9 fbbb ce9d 913c 5798 ca3c
00000370: e30b 9fbc 01b6 51bc 20fb a7bc 5c00 82bb
00000380: 01cf 54bc 3a1a d53c 6e95 a3bc ee91 ac3c
00000390: 8b49 0fbd 6572 853c f19f f23c 01a8 70bc
000003a0: 35cb a33c 25c6 44bb 4344 a8bc 0a43 803c
000003b0: acb6 87bc 5c19 acbc f5b0 a83c a136 753c
000003c0: aa96 9cbc 9351 41bc 3014 103d 8a21 f3bb
000003d0: 33db 773c e104 6ebc 83e3 a33c d7b1 2bbc
000003e0: a70d 8a3c 4a5c 3c3a 4a2b 14bc 601f 21bc
000003f0: ca4f 9f3c 25e1 0639 4a85 f9bb ca9e 67bb

bn1.weight f4 [256]
1.0 1.0 1.0 1.0 1.0 1.0 1.0 1.0
1.0 1.0 1.0 1.0 1.0 1.0 1.0 1.0
1.0 1.0 1.0 1.0 1.0 1.0 1.0 1.0
1.0 1.0 1.0 1.0 1.0 1.0 1.0 1.0
1.0 1.0 1.0 1.0 1.0 1.0 1.0 1.0
1.0 1.0 1.0 1.0 1.0 1.0 1.0 1.0
1.0 1.0 1.0 1.0 1.0 1.0 1.0 1.0
1.0 1.0 1.0 1.0 1.0 1.0 1.0 1.0
1.0 1.0 1.0 1.0 1.0 1.0 1.0 1.0
1.0 1.0 1.0 1.0 1.0 1.0 1.0 1.0
1.0 1.0 1.0 1.0 1.0 1.0 1.0 1.0
1.0 1.0 1.0 1.0 1.0 1.0 1.0 1.0
1.0 1.0 1.0 1.0 1.0 1.0 1.0 1.0
1.0 1.0 1.0 1.0 1.0 1.0 1.0 1.0
1.0 1.0 1.0 1.0 1.0 1.0 1.0 1.0
1.0 1.0 1.0 1.0 1.0 1.0 1.0 1.0
1.0 1.0 1.0 1.0 1.0 1.0 1.0 1.0
1.0 1.0 1.0 1.0 1.0 1.0 1.0 1.0
1.0 1.0 1.0 1.0 1.0 1.0 1.0 1.0
1.0 1.0 1.0 1.0 1.0 1.0 1.0 1.0
1.0 1.0 1.0 1.0 1.0 1.0 1.0 1.0
1.0 1.0 1.0 1.0 1.0 1.0 1.0 1.0
1.0 1.0 1.0 1.0 1.0 1.0 1.0 1.0
1.0 1.0 1.0 1.0 1.0 1.0 1.0 1.0
1.0 1.0 1.0 1.0 1.0 1.0 1.0 1.0
1.0 1.0 1.0 1.0 1.0 1.0 1.0 1.0
1.0 1.0 1.0 1.0 1.0 1.0 1.0 1.0
1.0 1.0 1.0 1.0 1.0 1.0 1.0 1.0
1.0 1.0 1.0 1.0 1.0 1.0 1.0 1.0
1.0 1.0 1.0 1.0 1.0 1.0 1.0 1.0
1.0 1.0 1.0 1.0 1.0 1.0 1.0 1.0
1.0 1.0 1.0 1.0 1.0 1.0 1.0 1.0
00000000: 0000 803f 0000 803f 0000 803f 0000 803f
00000010: 0000 803f 0000 803f 0000 803f 0000 803f
00000020: 0000 803f 0000 803f 0000 803f 0000 803f
00000030: 0000 803f 0000 803f 0000 803f 0000 803f
00000040: 0000 803f 0000 803f 0000 803f 0000 803f
00000050: 0000 803f 0000 803f 0000 803f 0000 803f
00000060: 0000 803f 0000 803f 0000 803f 0000 803f
00000070: 0000 803f 0000 803f 0000 803f 0000 803f
00000080: 0000 803f 0000 803f 0000 803f 0000 803f
00000090: 0000 803f 0000 803f 0000 803f 0000 803f
000000a0: 0000 803f 0000 803f 0000 803f 0000 803f
000000b0: 0000 803f 0000 803f 0000 803f 0000 803f
000000c0: 0000 803f 0000 803f 0000 803f 0000 803f
000000d0: 0000 803f 0000 803f 0000 803f 0000 803f
000000e0: 0000 803f 0000 803f 0000 803f 0000 803f
000000f0: 0000 803f 0000 803f 0000 803f 0000 803f
00000100: 0000 803f 0000 803f 0000 803f 0000 803f
00000110: 0000 803f 0000 803f 0000 803f 0000 803f
00000120: 0000 803f 0000 803f 0000 803f 0000 803f
00000130: 0000 803f 0000 803f 0000 803f 0000 803f
00000140: 0000 803f 0000 803f 0000 803f 0000 803f
00000150: 0000 803f 0000 803f 0000 803f 0000 803f
00000160: 0000 803f 0000 803f 0000 803f 0000 803f
00000170: 0000 803f 0000 803f 0000 803f 0000 803f
00000180: 0000 803f 0000 803f 0000 803f 0000 803f
00000190: 0000 803f 0000 803f 0000 803f 0000 803f
000001a0: 0000 803f 0000 803f 0000 803f 0000 803f
000001b0: 0000 803f 0000 803f 0000 803f 0000 803f
000001c0: 0000 803f 0000 803f 0000 803f 0000 803f
000001d0: 0000 803f 0000 803f 0000 803f 0000 803f
000001e0: 0000 803f 0000 803f 0000 803f 0000 803f
000001f0: 0000 803f 0000 803f 0000 803f 0000 803f
00000200: 0000 803f 0000 803f 0000 803f 0000 803f
00000210: 0000 803f 0000 803f 0000 803f 0000 803f
00000220: 0000 803f 0000 803f 0000 803f 0000 803f
00000230: 0000 803f 0000 803f 0000 803f 0000 803f
00000240: 0000 803f 0000 803f 0000 803f 0000 803f
00000250: 0000 803f 0000 803f 0000 803f 0000 803f
00000260: 0000 803f 0000 803f 0000 803f 0000 803f
00000270: 0000 803f 0000 803f 0000 803f 0000 803f
00000280: 0000 803f 0000 803f 0000 803f 0000 803f
00000290: 0000 803f 0000 803f 0000 803f 0000 803f
000002a0: 0000 803f 0000 803f 0000 803f 0000 803f
000002b0: 0000 803f 0000 803f 0000 803f 0000 803f
000002c0: 0000 803f 0000 803f 0000 803f 0000 803f
000002d0: 0000 803f 0000 803f 0000 803f 0000 803f
000002e0: 0000 803f 0000 803f 0000 803f 0000 803f
000002f0: 0000 803f 0000 803f 0000 803f 0000 803f
00000300: 0000 803f 0000 803f 0000 803f 0000 803f
00000310: 0000 803f 0000 803f 0000 803f 0000 803f
00000320: 0000 803f 0000 803f 0000 803f 0000 803f
00000330: 0000 803f 0000 803f 0000 803f 0000 803f
00000340: 0000 803f 0000 803f 0000 803f 0000 803f
00000350: 0000 803f 0000 803f 0000 803f 0000 803f
00000360: 0000 803f 0000 803f 0000 803f 0000 803f
00000370: 0000 803f 0000 803f 0000 803f 0000 803f
00000380: 0000 803f 0000 803f 0000 803f 0000 803f
00000390: 0000 803f 0000 803f 0000 803f 0000 803f
000003a0: 0000 803f 0000 803f 0000 803f 0000 803f
000003b0: 0000 803f 0000 803f 0000 803f 0000 803f
000003c0: 0000 803f 0000 803f 0000 803f 0000 803f
000003d0: 0000 803f 0000 803f 0000 803f 0000 803f
000003e0: 0000 803f 0000 803f 0000 803f 0000 803f
000003f0: 0000 803f 0000 803f 0000 803f 0000 803f

bn1.bias f4 [256]
0.0 0.0 0.0 0.0 0.0 0.0 0.0 0.0
0.0 0.0 0.0 0.0 0.0 0.0 0.0 0.0
0.0 0.0 0.0 0.0 0.0 0.0 0.0 0.0
0.0 0.0 0.0 0.0 0.0 0.0 0.0 0.0
0.0 0.0 0.0 0.0 0.0 0.0 0.0 0.0
0.0 0.0 0.0 0.0 0.0 0.0 0.0 0.0
0.0 0.0 0.0 0.0 0.0 0.0 0.0 0.0
0.0 0.0 0.0 0.0 0.0 0.0 0.0 0.0
0.0 0.0 0.0 0.0 0.0 0.0 0.0 0.0
0.0 0.0 0.0 0.0 0.0 0.0 0.0 0.0
0.0 0.0 0.0 0.0 0.0 0.0 0.0 0.0
0.0 0.0 0.0 0.0 0.0 0.0 0.0 0.0
0.0 0.0 0.0 0.0 0.0 0.0 0.0 0.0
0.0 0.0 0.0 0.0 0.0 0.0 0.0 0.0
0.0 0.0 0.0 0.0 0.0 0.0 0.0 0.0
0.0 0.0 0.0 0.0 0.0 0.0 0.0 0.0
0.0 0.0 0.0 0.0 0.0 0.0 0.0 0.0
0.0 0.0 0.0 0.0 0.0 0.0 0.0 0.0
0.0 0.0 0.0 0.0 0.0 0.0 0.0 0.0
0.0 0.0 0.0 0.0 0.0 0.0 0.0 0.0
0.0 0.0 0.0 0.0 0.0 0.0 0.0 0.0
0.0 0.0 0.0 0.0 0.0 0.0 0.0 0.0
0.0 0.0 0.0 0.0 0.0 0.0 0.0 0.0
0.0 0.0 0.0 0.0 0.0 0.0 0.0 0.0
0.0 0.0 0.0 0.0 0.0 0.0 0.0 0.0
0.0 0.0 0.0 0.0 0.0 0.0 0.0 0.0
0.0 0.0 0.0 0.0 0.0 0.0 0.0 0.0
0.0 0.0 0.0 0.0 0.0 0.0 0.0 0.0
0.0 0.0 0.0 0.0 0.0 0.0 0.0 0.0
0.0 0.0 0.0 0.0 0.0 0.0 0.0 0.0
0.0 0.0 0.0 0.0 0.0 0.0 0.0 0.0
0.0 0.0 0.0 0.0 0.0 0.0 0.0 0.0
00000000: 0000 0000 0000 0000 0000 0000 0000 0000
00000010: 0000 0000 0000 0000 0000 0000 0000 0000
00000020: 0000 0000 0000 0000 0000 0000 0000 0000
00000030: 0000 0000 0000 0000 0000 0000 0000 0000
00000040: 0000 0000 0000 0000 0000 0000 0000 0000
00000050: 0000 0000 0000 0000 0000 0000 0000 0000
00000060: 0000 0000 0000 0000 0000 0000 0000 0000
00000070: 0000 0000 0000 0000 0000 0000 0000 0000
00000080: 0000 0000 0000 0000 0000 0000 0000 0000
00000090: 0000 0000 0000 0000 0000 0000 0000 0000
000000a0: 0000 0000 0000 0000 0000 0000 0000 0000
000000b0: 0000 0000 0000 0000 0000 0000 0000 0000
000000c0: 0000 0000 0000 0000 0000 0000 0000 0000
000000d0: 0000 0000 0000 0000 0000 0000 0000 0000
000000e0: 0000 0000 0000 0000 0000 0000 0000 0000
000000f0: 0000 0000 0000 0000 0000 0000 0000 0000
00000100: 0000 0000 0000 0000 0000 0000 0000 0000
00000110: 0000 0000 0000 0000 0000 0000 0000 0000
00000120: 0000 0000 0000 0000 0000 0000 0000 0000
00000130: 0000 0000 0000 0000 0000 0000 0000 0000
00000140: 0000 0000 0000 0000 0000 0000 0000 0000
00000150: 0000 0000 0000 0000 0000 0000 0000 0000
00000160: 0000 0000 0000 0000 0000 0000 0000 0000
00000170: 0000 0000 0000 0000 0000 0000 0000 0000
00000180: 0000 0000 0000 0000 0000 0000 0000 0000
00000190: 0000 0000 0000 0000 0000 0000 0000 0000
000001a0: 0000 0000 0000 0000 0000 0000 0000 0000
000001b0: 0000 0000 0000 0000 0000 0000 0000 0000
000001c0: 0000 0000 0000 0000 0000 0000 0000 0000
000001d0: 0000 0000 0000 0000 0000 0000 0000 0000
000001e0: 0000 0000 0000 0000 0000 0000 0000 0000
000001f0: 0000 0000 0000 0000 0000 0000 0000 0000
00000200: 0000 0000 0000 0000 0000 0000 0000 0000
00000210: 0000 0000 0000 0000 0000 0000 0000 0000
00000220: 0000 0000 0000 0000 0000 0000 0000 0000
00000230: 0000 0000 0000 0000 0000 0000 0000 0000
00000240: 0000 0000 0000 0000 0000 0000 0000 0000
00000250: 0000 0000 0000 0000 0000 0000 0000 0000
00000260: 0000 0000 0000 0000 0000 0000 0000 0000
00000270: 0000 0000 0000 0000 0000 0000 0000 0000
00000280: 0000 0000 0000 0000 0000 0000 0000 0000
00000290: 0000 0000 0000 0000 0000 0000 0000 0000
000002a0: 0000 0000 0000 0000 0000 0000 0000 0000
000002b0: 0000 0000 0000 0000 0000 0000 0000 0000
000002c0: 0000 0000 0000 0000 0000 0000 0000 0000
000002d0: 0000 0000 0000 0000 0000 0000 0000 0000
000002e0: 0000 0000 0000 0000 0000 0000 0000 0000
000002f0: 0000 0000 0000 0000 0000 0000 0000 0000
00000300: 0000 0000 0000 0000 0000 0000 0000 0000
00000310: 0000 0000 0000 0000 0000 0000 0000 0000
00000320: 0000 0000 0000 0000 0000 0000 0000 0000
00000330: 0000 0000 0000 0000 0000 0000 0000 0000
00000340: 0000 0000 0000 0000 0000 0000 0000 0000
00000350: 0000 0000 0000 0000 0000 0000 0000 0000
00000360: 0000 0000 0000 0000 0000 0000 0000 0000
00000370: 0000 0000 0000 0000 0000 0000 0000 0000
00000380: 0000 0000 0000 0000 0000 0000 0000 0000
00000390: 0000 0000 0000 0000 0000 0000 0000 0000
000003a0: 0000 0000 0000 0000 0000 0000 0000 0000
000003b0: 0000 0000 0000 0000 0000 0000 0000 0000
000003c0: 0000 0000 0000 0000 0000 0000 0000 0000
000003d0: 0000 0000 0000 0000 0000 0000 0000 0000
000003e0: 0000 0000 0000 0000 0000 0000 0000 0000
000003f0: 0000 0000 0000 0000 0000 0000 0000 0000

bn1.running_mean f4 [256]
0.105416276 -0.1714547 0.086969085 -0.10777773 -0.22243184 -0.08127954 0.17758022 0.014517981
-0.13958311 0.05434503 -0.010530252 -0.07823753 -0.0769427 0.007125295 -0.040326547 0.040363517
-0.19482489 0.081607446 0.122827396 -0.1244968 0.179322 -0.30373946 0.16691805 -0.11219665
-0.11020144 -0.0825202 -0.10143513 0.121136665 -0.20220947 -0.04646893 0.05799173 -0.0851509
-0.047893047 0.026998099 0.04894322 0.011363928 0.03356655 -0.027588401 -0.04802038 0.07660819
0.0544968 -0.101754144 -0.03576043 -0.08897733 0.06680603 -0.06832117 0.13754629 -0.0860125
0.24237269 -0.14471853 -0.06191212 0.073492154 0.0049790945 0.2837572 -0.1546146 0.2740259
-0.030232444 0.28264916 -0.0388057 -0.06672644 -0.1929234 -0.10274192 -0.003263608 0.21026927
0.17855011 0.104825534 -0.115298934 -0.091686875 0.05286079 -0.2037586 0.1763168 -0.08482717
0.019050606 0.25624698 0.09769471 -0.118901744 0.076201946 0.09488065 -0.16151492 -0.24648067
-0.06337049 -0.013304543 0.23213112 0.28322935 0.04436867 -0.04880739 -0.036138065 0.0466596
-0.109805025 0.090367585 -0.08162388 -0.10742342 -0.04225107 -0.010895009 -0.2011222 0.23735937
-0.12360894 -0.13087735 -0.08661637 -0.13977708 -0.11774871 -0.13895552 0.058647905 -0.05088285
-0.02109838 -0.2967508 0.11734242 0.068434104 0.024013951 -0.017424818 0.013212465 -0.006080415
-0.031246953 -0.31619045 0.09369609 0.08705823 0.07134436 0.06512621 -0.1938287 -0.1408461
-0.07933666 0.11343908 0.1300699 0.14627437 -0.086656556 0.023073979 -0.11670008 -0.121039
0.03645653 0.061059777 -0.027374703 -0.021869078 -0.04279626 0.08493879 -0.06246575 -0.12487237
-0.0042724283 -0.050017916 -0.008917304 -0.004269863 -0.05967213 0.18257907 -0.0074332957 0.12056263
0.03603104 -0.067615055 0.14085235 0.14784831 -0.016034849 -0.06849297 0.3145999 -0.022041533
0.18858589 0.007276332 0.042193905 0.031710293 -0.0610698 0.0089173755 0.092183135 0.10452577
0.1306377 -0.015053222 0.06867857 -0.0031541963 0.08644009 -0.09702592 -0.04093171 0.0010170556
0.09646983 -0.07870614 0.042170234 -0.06910398 -0.06500939 -0.24162985 -0.042017598 0.09465512
0.09787974 -0.09676372 -0.09830799 -0.24172089 0.16225836 -0.15679704 -0.072799094 0.25529498
0.050293747 0.016644556 -0.1502724 -0.030868325 -0.009887946 0.122187175 0.10203982 -0.017005283
-0.037415076 0.13204366 -0.1561207 0.19443399 -0.13996255 0.19418369 0.03439722 0.014144657
0.024604514 0.09768663 0.021362675 -0.13910766 -0.09453274 -0.13348797 0.14406092 -0.08625751
0.12056544 -0.04194898 0.08861625 -0.0010797885 0.06575038 0.053407196 0.18076502 0.1086127
-0.03577212 -0.21635647 -0.040751573 0.29072925 0.10653563 -0.03277685 0.14362545 0.14160281
-0.059169933 0.27733907 -0.15383616 -0.06496833 -0.2168986 -0.07386292 0.12618184 -0.08439247
0.12686738 -0.00011265233 -0.05349293 0.00840224 0.071561046 -0.087866455 -0.1102297 -0.1385448
-0.07707036 -0.009255523 0.043593086 -0.026630554 0.04002805 -0.13986905 -0.029537382 0.012115623
0.08972718 -0.1688738 0.116585016 -0.10357907 -0.009710802 -0.016295694 -0.16732034 -0.0010666257
00000000: 7de4 d73d d291 2fbe d91c b23d 92ba dcbd
00000010: 2cc5 63be e375 a6bd 97d7 353e d3dc 6d3c
00000020: e0ee 0ebe e598 5e3d 1487 2cbc 003b a0bd
00000030: 2294 9dbd 4e7b e93b 732d 25bd 3754 253d
00000040: 2d80 47be ce21 a73d ee8c fb3d 2ef8 febd
00000050: 30a0 373e bd83 9bbe 91ec 2a3e 5bc7 e5bd
00000060: 4bb1 e1bd 5a00 a9bd 39bd cfbd 8016 f83d
00000070: 0010 4fbe 3456 3ebd bc88 6d3d 9863 aebd
00000080: 802b 44bd 1e2b dd3c b078 483d c52f 3a3c
00000090: 147d 093d 1201 e2bc 05b1 44bd c1e4 9c3d
000000a0: 0938 5f3d 7a64 d0bd 8779 12bd bf39 b6bd
000000b0: 9ad1 883d f8eb 8bbd efd8 0c3e 5227 b0bd
000000c0: 8c30 783e 1831 14be 9097 7dbd 0e83 963d
000000d0: ac27 a33b a048 913e 4a53 1ebe 1f4d 8c3e
000000e0: 08aa f7bc 64b7 903e baf2 1ebd dfa7 88bd
000000f0: b68d 45be 5b6a d2bd 42e2 55bb d450 573e
00000100: d7d5 363e c5ae d63d d921 ecbd 54c6 bbbd
00000110: 8e84 583d 18a6 50be 648c 343e deb9 adbd
00000120: 0410 9c3c ce32 833e 2a14 c83d c282 f3bd
00000130: c40f 9c3d c950 c23d 2b64 25be 6e65 7cbe
00000140: 63c8 81bd 4cfb 59bc c8b3 6d3e 7003 913e
00000150: ecbb 353d 42ea 47bd 8205 14bd 231e 3f3d
00000160: 75e1 e0bd a412 b93d 6c2a a7bd cf00 dcbd
00000170: 750f 2dbd fb80 32bc faf2 4dbe 560e 733e
00000180: af26 fdbd b604 06be ec63 b1bd b921 0fbe
00000190: 3c26 f1bd 5b4a 0ebe c938 703d 896a 50bd
000001a0: 83d6 acbc b9ef 97be 3951 f03d 2e27 8c3d
000001b0: e8b8 c43c 7ebe 8ebc 1879 583c 383e c7bb
000001c0: 9cf9 ffbc b7e3 a1be bce3 bf3d 964b b23d
000001d0: fe1c 923d e460 853d 087b 46be f639 10be
000001e0: 427b a2bd c052 e83d 0b31 053e f3c8 153e
000001f0: fe78 b1bd a405 bd3c 7400 efbd 4ce3 f7bd
00000200: 7153 153d d119 7a3d ea40 e0bc c826 b3bc
00000210: 224b 2fbd 63f4 ad3d 16dc 7fbd 16bd ffbd
00000220: baff 8bbb 96df 4cbd e219 12bc 35ea 8bbb
00000230: c36a 74bd 02f6 3a3e 0193 f3bb 8ae9 f63d
00000240: 4995 133d c379 8abd 993b 103e 8c65 173e
00000250: 845b 83bc 0b46 8cbd 3d13 a13e 7290 b4bc
00000260: a91c 413e 4c6e ee3b 84d3 2c3d a7e2 013d
00000270: 5424 7abd 2f1a 123c 83ca bc3d 9b11 d63d
00000280: e4c5 053e caa1 76bc 5aa7 8c3d a2b6 4ebb
00000290: 8007 b13d 87b5 c6bd 02a8 27bd b94e 853a
000002a0: f991 c53d af30 a1bd b2ba 2c3d 6386 8dbd
000002b0: a523 85bd d16d 77be a51a 2cbd 8bda c13d
000002c0: 2c75 c83d 0f2c c6bd b355 c9bd ae85 77be
000002d0: 0e27 263e 678f 20be b117 95bd 06b6 823e
000002e0: d100 4e3d 2a5a 883c 02e1 19be 92df fcbc
000002f0: 0d01 22bc 453d fa3d 41fa d03d aa4e 8bbc
00000300: 8d40 19bd 7436 073e 1bde 1fbe b419 473e
00000310: 5852 0fbe 17d8 463e 19e4 0c3d febe 673c
00000320: 688f c93c ee0f c83d c700 af3c 3d72 0ebe
00000330: 629a c1bd 12b1 08be b584 133e c7a7 b0bd
00000340: 03eb f63d b2d2 2bbd 707c b53d b187 8dba
00000350: 23a8 863d 81c1 5a3d 771a 393e 5670 de3d
00000360: c985 12bd 8d8c 5dbe 1feb 26bd 77da 943e
00000370: 5a2f da3d 0541 06bd 8d12 133e 5400 113e
00000380: 2c5c 72bd 63ff 8d3e 3a87 1dbe 1e0e 85bd
00000390: ab1a 5ebe 7145 97bd d035 013e f6d5 acbd
000003a0: 86e9 013e c23f ecb8 671b 5bbd 8da9 093c
000003b0: 998e 923d 54f3 b3bd 1cc0 e1bd b0de 0dbe
000003c0: 11d7 9dbd 7aa4 17bc aa8e 323d 5228 dabc
000003d0: 74f4 233d d539 0fbe 61f8 f1bc 9b80 463c
000003e0: e2c2 b73d 41ed 2cbe 20c4 ee3d 4321 d4bd
000003f0: 0e1a 1fbc 8c7e 85bc 0656 2bbe 05ce 8bba

bn1.running_var f4 [256]
0.020899164 0.030371472 0.01682094 0.022881547 0.019700835 0.021667495 0.035135385 0.018762682
0.029362988 0.020172136 0.015620094 0.026075568 0.029724866 0.020904956 0.025239771 0.018988157
0.025932211 0.019114576 0.022134889 0.01739946 0.024311207 0.03282498 0.020811886 0.018511394
0.019658212 0.023095913 0.016601918 0.027975686 0.032141585 0.019481435 0.017729186 0.019168783
0.021307895 0.015379617 0.019621229 0.027482135 0.015430656 0.03505183 0.031645782 0.019551165
0.0155384885 0.022545487 0.013902738 0.016651344 0.02139825 0.016582813 0.018379513 0.017266981
0.027643325 0.021108394 0.022993285 0.014464974 0.019029187 0.026739884 0.02051588 0.028422434
0.028935103 0.027748857 0.019185781 0.03018994 0.021555604 0.030743346 0.021237379 0.02132083
0.020291483 0.025583832 0.016840896 0.01760906 0.031882692 0.013158513 0.020106353 0.018890113
0.02302735 0.02012128 0.024714254 0.018675067 0.015824318 0.035892054 0.026666962 0.03649082
0.024750445 0.018345313 0.020910423 0.019227773 0.025594302 0.029015476 0.017003888 0.02246043
0.01910246 0.017555755 0.013716277 0.023892764 0.02270233 0.025235716 0.024925776 0.033784993
0.023434747 0.028429586 0.014852298 0.019137606 0.019302052 0.015773978 0.023904365 0.018485047
0.029519416 0.019158622 0.0262464 0.018907487 0.02308243 0.018993314 0.015695369 0.022509791
0.026616603 0.032009546 0.022398824 0.019418884 0.02837252 0.02200956 0.021807354 0.013477378
0.015737923 0.013041469 0.021387033 0.025955945 0.02837832 0.023804434 0.017609 0.01578921
0.022978585 0.022878746 0.025163999 0.01959062 0.01684128 0.016832463 0.021391355 0.02326029
0.015684012 0.020304082 0.021528631 0.020192998 0.02410121 0.022832448 0.013267149 0.022397975
0.026345478 0.0266633 0.016504137 0.021311052 0.0132280355 0.018279852 0.021907348 0.018079542
0.015982546 0.028222535 0.013903998 0.021583162 0.020331543 0.028893055 0.022748675 0.030049186
0.024932284 0.030057902 0.025099386 0.021160487 0.020355148 0.03360616 0.021733664 0.039034486
0.020574136 0.025511695 0.024480408 0.030574037 0.022540933 0.032880604 0.020506967 0.017400816
0.015708264 0.025025142 0.018022135 0.020644337 0.01597982 0.016141964 0.022680208 0.025112094
0.016508715 0.019035963 0.017387545 0.026718639 0.014147603 0.017443836 0.014164177 0.029018259
0.019580152 0.02091662 0.027852323 0.022908203 0.018445458 0.02905186 0.025263224 0.024505226
0.026828768 0.01953843 0.0155387465 0.01961139 0.026281623 0.03022424 0.019110048 0.015811155
0.022326132 0.017452449 0.026425796 0.020944703 0.02139439 0.018754128 0.019626543 0.014121755
0.022404531 0.015615197 0.025416816 0.023191897 0.03544177 0.01579406 0.01660548 0.018394792
0.025823241 0.02577516 0.02210413 0.019045118 0.029150661 0.030943729 0.013125698 0.022364555
0.0177888 0.027658029 0.015881993 0.026672095 0.012936002 0.026957503 0.023736676 0.020407416
0.018335909 0.017526919 0.032996 0.014627004 0.017632902 0.017143173 0.024162762 0.020757101
0.019551456 0.021096619 0.025229272 0.016439296 0.020842427 0.016408157 0.022745367 0.022191353
00000000: b934 ab3c 98cd f83c 11cc 893c 1572 bb3c
00000010: a563 a13c 0880 b13c 1fea 0f3d 32b4 993c
00000020: a68a f03c 0940 a53c 6ceb 7f3c 6e9c d53c
00000030: 9081 f33c df40 ab3c a3c3 ce3c 0d8d 9b3c
00000040: ca6f d43c 2c96 9c3c 3a54 b53c 5089 8e3c
00000050: 4c28 c73c 7c73 063d b07d aa3c 35a5 973c
00000060: 420a a13c a433 bd3c bf00 883c 442d e53c
00000070: e5a6 033d 8897 9f3c cc3c 913c da07 9d3c
00000080: e58d ae3c cafa 7b3c b3bc a03c 3722 e13c
00000090: ddd0 7c3c 8292 0f3d 029f 013d c429 a03c
000000a0: 2595 7e3c 50b1 b83c 4fc8 633c 6668 883c
000000b0: 624b af3c aed8 873c a290 963c 7c73 8d3c
000000c0: 4174 e23c 83eb ac3c 6a5c bc3c 80fe 6c3c
000000d0: 19e3 9b3c 9a0d db3c eb10 a83c 2ad6 e83c
000000e0: 4f09 ed3c 9251 e33c 802b 9d3c e550 f73c
000000f0: 6195 b03c 78d9 fb3c 03fa ad3c 05a9 ae3c
00000100: 533a a63c 2f95 d13c ebf5 893c e040 903c
00000110: 6d97 023d ce96 573c 14b6 a43c 70bf 9a3c
00000120: daa3 bc3c 62d5 a43c 8c75 ca3c 74fc 983c
00000130: 00a2 813c 8c03 133d ac74 da3c 6677 153d
00000140: 72c1 ca3c e948 963c 564c ab3c 9083 9d3c
00000150: 24ab d13c ddb1 ed3c bd4b 8b3c f0fe b73c
00000160: c37c 9c3c 16d1 8f3c 3cba 603c c2ba c33c
00000170: 3dfa b93c 22bb ce3c 2431 cc3c 2262 0a3d
00000180: 3afa bf3c 2ae5 e83c 0e57 733c 78c6 9c3c
00000190: 561f 9e3c 6e38 813c 16d3 c33c f46d 973c
000001a0: b4d2 f13c 8bf2 9c3c b102 d73c e0e3 9a3c
000001b0: 5d17 bd3c de97 9b3c 9393 803c 7466 b83c
000001c0: 100b da3c 711c 033d bd7d b73c 5a14 9f3c
000001d0: 7d6d e83c 654d b43c 56a5 b23c 38d0 5c3c
000001e0: d1ec 803c e3ab 553c dc33 af3c 90a1 d43c
000001f0: a779 e83c 8401 c33c c040 903c 6058 813c
00000200: 963d bc3c 356c bb3c bb24 ce3c 827c a03c
00000210: b9f6 893c 3ce4 893c ec3c af3c 5d8c be3c
00000220: c27b 803c bf54 a63c d05c b03c c96b a53c
00000230: e76f c53c 1d0b bb3c 755e 593c f57b b73c
00000240: 79d2 d73c fe6c da3c af33 873c 8494 ae3c
00000250: 67ba 583c a1bf 953c 0a77 b33c 8c1b 943c
00000260: d4ed 823c f232 e73c 98cd 633c 2ccf b03c
00000270: 568e a63c 21b1 ec3c 6e5b ba3c b629 f63c
00000280: ca3e cc3c fd3b f63c 3a9d cd3c c258 ad3c
00000290: d7bf a63c 9da6 093d cc0a b23c a0e2 1f3d
000002a0: 178b a83c e7fd d03c 238b c83c 6776 fa3c
000002b0: c3a7 b83c d0ad 063d 3afe a73c 288c 8e3c
000002c0: 9eae 803c 8701 cd3c 28a3 933c 501e a93c
000002d0: 1de8 823c 273c 843c d8cb b93c e1b7 cd3c
000002e0: 493d 873c 4ff1 9b3c 5370 8e3c 0ce1 da3c
000002f0: 59cb 673c 60e6 8e3c dd10 683c b3b7 ed3c
00000300: 8e66 a03c 5559 ab3c 8e2a e43c fca9 bb3c
00000310: ee1a 973c 2bfe ed3c d2f4 ce3c 2fbf c83c
00000320: 01c8 db3c 0f0f a03c 3a96 7e3c 11a8 a03c
00000330: 8f4c d73c d398 f73c ad8c 9c3c 6586 813c
00000340: 4be5 b63c 70f8 8e3c e97a d83c 3a94 ab3c
00000350: 4a43 af3c 42a2 993c d8c7 a03c ef5e 673c
00000360: b589 b73c e2d6 7f3c ed36 d03c effc bd3c
00000370: 642b 113d 8b62 813c 3708 883c adb0 963c
00000380: 438b d33c 6e26 d33c b813 b53c 8204 9c3c
00000390: 5ecd ee3c b47d fd3c 2b0d 573c df35 b73c
000003a0: d1b9 913c 1793 e23c f41a 823c 707f da3c
000003b0: 86f1 533c fbd5 dc3c 6b73 c23c 742d a73c
000003c0: 3035 963c 9d94 8f3c d026 073d 1aa6 6f3c
000003d0: e072 903c d76f 8c3c fcf0 c53c cc0a aa3c
000003e0: 602a a03c d1d2 ac3c 9ead ce3c b4ab 863c
000003f0: bdbd aa3c 666a 863c 7e54 ba3c a4ca b53c

fc2.weight f4 [10, 256]
-0.020026807 -0.13845174 -0.21900399 -0.02550913 -0.05353296 0.12059302 0.3059718 0.04073979
-0.029890696 -0.17015533 -0.049650937 0.06672093 -0.08933391 0.012511036 -0.18026608 -0.0021267287
-0.09812211 -0.23181006 -0.18846251 -0.14360026 -0.10660021 0.0138596 -0.1385369 -0.19856809
-0.0138486 0.010210824 -0.090645574 0.10952467 -0.039364826 -0.052740935 -0.026908984 -0.05799767
0.12080679 -0.19360751 -0.13157766 -0.03399569 0.24938133 -0.14295384 0.15589522 0.08533941
0.16573997 -0.06326687 -0.008439305 0.08303585 -0.07600878 -0.23731066 -0.0049365363 0.07711034
-0.2230635 -0.08894408 0.0004336597 -0.19425902 -0.15732545 -0.124372534 -0.041759536 -0.2628429
-0.13430332 0.13737504 0.1756386 0.03467977 0.044464424 0.0972174 0.09423698 0.1891948
0.105920196 0.18345481 -0.057854105 -0.007298367 0.03838477 -0.09274924 0.012014623 -0.13192171
-0.26103964 0.106499135 -0.076218106 -0.01745349 0.033583175 -0.19884752 -0.14037414 -0.21355942
-0.00033557057 0.26725218 0.25253594 -0.040639713 -0.020523837 -0.03007917 -0.05854089 -0.25874785
0.12346982 0.07471073 -0.06997328 0.25839958 0.22952667 -0.07014283 -0.0683831 0.04446151
0.15554361 0.06914516 0.19359371 -0.04037536 -0.13561009 -0.06996167 -0.037806727 -0.15170148
0.35774276 0.0056168917 0.020251863 -0.027526613 -0.010244802 0.28875497 0.3012334 0.11485511
0.13777536 0.15959062 0.27816033 -0.06486795 0.0017031081 -0.077266864 0.24691287 0.34017766
0.12924151 -0.09802665 0.0033978065 0.19281434 -0.028674833 0.071152054 -0.046303038 -0.014331057
0.19975121 0.19693996 0.124693505 -0.20781714 0.14411286 0.05121161 -0.07187941 0.039455663
0.01582052 -0.2580089 0.107945636 -0.061522964 0.13374974 0.21956262 0.14061888 0.012859
-0.3119441 0.119463265 -0.07327887 -0.045501236 -0.009761843 0.28244886 -0.13209943 0.2523748
0.06518402 -0.10381001 -0.05323232 -0.24242361 0.0759709 -0.28125173 -0.028232489 0.07540165
-0.20841452 0.17191447 -0.29687434 -0.07160564 0.049594402 0.20711152 -0.09501412 -0.18644561
-0.14522816 -0.030825902 0.07630617 -0.056841306 0.15549704 0.16511399 -0.015722584 -0.08267409
-0.039132133 0.09637286 -0.06033078 0.027969435 0.11442363 0.018523917 -0.043046143 0.17395376
-0.16119999 0.10086772 -0.14459884 -0.16580693 0.18078268 0.018209286 -0.017043568 -0.019605529
-0.004913907 0.046533212 -0.05420517 -0.21907169 -0.09494438 0.073919795 0.2966514 -0.09819566
-0.023231711 0.17213255 0.24113894 0.10449792 -0.1780863 -0.0761293 -0.23954752 -0.18530487
0.06518282 0.08270697 0.26901153 0.054424472 -0.2619349 0.019039622 -0.025154019 -0.00881528
0.036081914 0.14375167 -0.037553005 0.15056074 0.02198433 -0.04712901 -0.21074979 0.059266265
-0.07392258 -0.127817 -0.055293437 -0.091901384 0.10379756 0.017775858 -0.054005463 -0.24211112
0.010150967 0.07595314 0.053152245 -0.042660635 -0.06161559 0.11688032 -0.047321856 -0.10814683
0.030802019 0.21944661 0.07159633 0.0072907214 0.080665685 0.13282803 0.15891781 -0.14688696
-0.27055877 -0.15495165 0.3167331 -0.07955394 -0.014837876 0.03136769 -0.26210028 0.098983966
00000000: 420f a4bc 4bc6 0dbe 9542 60be 86f8 d0bc
00000010: 6145 5bbd 79f9 f63d 56a8 9c3e c4de 263d
00000020: 55dd f4bc 333d 2ebe c85e 4bbd fca4 883d
00000030: b2f4 b6bd 17fb 4c3c ac97 38be 9660 0bbb
00000040: 3ff4 c8bd 9e5f 6dbe 51fc 40be f20b 13be
00000050: 3651 dabd 6013 633c 9edc 0dbe 6f55 4bbe
00000060: 3de5 62bc 4d4b 273c 63a4 b9bd 784e e03d
00000070: 033d 21bd e106 58bd 3b70 dcbc f78e 6dbd
00000080: 8d69 f73d 0c41 46be 4bbc 06be 113f 0bbd
00000090: d25d 7f3e 7e62 12be ffa2 1f3e 6ec6 ae3d
000000a0: bdb7 293e 1092 81bd 0345 0abc b30e aa3d
000000b0: 7eaa 9bbd 9101 73be abc2 a1bb 07ec 9d3d
000000c0: c26a 64be 5028 b6bd d25c e339 d6eb 46be
000000d0: ec19 21be 07b7 febd 0c0c 2bbd 5893 86be
000000e0: cf86 09be 0bac 0c3e 9bda 333e 600c 0e3d
000000f0: 5420 363d eb19 c73d 51ff c03d 48bc 413e
00000100: b0ec d83d 94db 3b3e 6df8 6cbd 2427 efbb
00000110: 5939 1d3d 50f3 bdbd fbd8 443c 7c16 07be
00000120: fda6 85be 381c da3d 3d18 9cbd 9ffa 8ebc
00000130: 838e 093d af9e 4bbe 3dbe 0fbe 52af 5abe
00000140: 85ef afb9 47d5 883e 644c 813e d475 26bd
00000150: 9b21 a8bc 9768 f6bc 93c8 6fbd 997a 84be
00000160: bfdd fc3d f001 993d 274e 8fbd f34c 843e
00000170: 0a09 6b3e 0ba7 8fbd 700c 8cbd 461d 363d
00000180: d346 1f3e fa9b 8d3d 6e3d 463e a260 25bd
00000190: 5fdd 0abe 1048 8fbd 3adb 1abd a257 1bbe
000001a0: 0f2a b73e e70d b83b 3ce7 a53c 7e7f e1bc
000001b0: d0d9 27bc b1d7 933e 443b 9a3e 2839 eb3d
000001c0: fc14 0d3e b96b 233e 086b 8e3e 7dd9 84bd
000001d0: d33a df3a 173e 9ebd bad6 7c3e c42b ae3e
000001e0: e357 043e 32c2 c8bd bcad 5e3b 1f71 453e
000001f0: 7ce7 eabc 2bb8 913d 41a8 3dbd cfcc 6abc
00000200: 958b 4c3e a1aa 493e 4f5f ff3d 04ce 54be
00000210: 5292 133e 44c3 513d 8335 93bd 439c 213d
00000220: 099a 813c be19 84be 9a12 dd3d 81ff 7bbd
00000230: b1f5 083e 06d5 603e 65fe 0f3e 8eae 523c
00000240: 23b7 9fbe 28a9 f43d 3b13 96bd 815f 3abd
00000250: 23f0 1fbc 239d 903e 1345 07be 4537 813e
00000260: 337f 853d 589a d4bd 220a 5abd e53d 78be
00000270: a296 9b3d 3a00 90be d247 e7bc 2e6c 9a3d
00000280: 9e6a 55be 590a 303e eaff 97be faa5 92bd
00000290: 8023 4b3d 0b15 543e c396 c2bd 99eb 3ebe
000002a0: b1b6 14be 9a86 fcbc 6946 9c3d 6ed2 68bd
000002b0: 9e3a 1f3e a413 293e a6cc 80bc 0951 a9bd
000002c0: 0449 20bd 225f c53d 681d 77bd 2820 e53c
000002d0: f056 ea3d 78bf 973c 2751 30bd ef20 323e
000002e0: 9c11 25be bc93 ce3d b811 14be 4bc9 29be
000002f0: 181f 393e a42b 953c f49e 8bbc c69b a0bc
00000300: d704 a1bb 9c99 3e3d 3e06 5ebd 5454 60be
00000310: 3372 c2bd 4363 973d b1e2 973e ce1a c9bd
00000320: 6e50 bebc 8443 303e 20ed 763e 0103 d63d
00000330: 415c 36be aee9 9bbd f24b 75be 8fc0 3dbe
00000340: 927e 853d 4662 a93d e1bb 893e 32ec 5e3d
00000350: 551c 86be fbf8 9b3c cd0f cebc f76d 10bc
00000360: a1ca 133d a333 133e 2ed1 19bd 982c 1a3e
00000370: 7b18 b43c 590a 41bd cbce 57be 2fc1 723d
00000380: b964 97bd 76e2 02be 5f7b 62bd cb36 bcbd
00000390: d193 d43d ad9e 913c d534 5dbd faeb 77be
000003a0: 3e50 263c 528d 9b3d 2bb6 593d ebbc 2ebd
000003b0: a160 7cbd f35e ef3d 90d4 41bd 167c ddbd
000003c0: 8454 fc3c 9db6 603e 19a1 923d 01e7 ee3b
000003d0: 0d34 a53d 1204 083e 5abb 223e 8969 16be
000003e0: ae86 8abe a5ab 1ebe d72a a23e 2ded a2bd
000003f0: 901a 73bc 687b 003d 0232 86be 1bb8 ca3d

fc2.bias f4 [10]
-1.4024863 -1.588276 0.7696658 0.65435886 -0.86823463 1.138231 -0.8488792 -0.7350446
1.3748305 0.15886644
00000000: ac84 b3bf a14c cbbf d108 453f 1084 273f
00000010: a044 5ebf 8eb1 913f 2650 59bf e22b 3cbf
00000020: 72fa af3f e2ad 223e
